node {
  name: "input_1"
  op: "Placeholder"
  attr {
    key: "dtype"
    value {
      type: DT_FLOAT
    }
  }
  attr {
    key: "shape"
    value {
      shape {
        dim {
          size: -1
        }
        dim {
          size: 300
        }
        dim {
          size: 300
        }
        dim {
          size: 3
        }
      }
    }
  }
}
node {
  name: "identity_layer/Identity"
  op: "Identity"
  input: "input_1"
  attr {
    key: "T"
    value {
      type: DT_FLOAT
    }
  }
}
node {
  name: "input_mean_normalization/sub/y"
  op: "Const"
  attr {
    key: "dtype"
    value {
      type: DT_FLOAT
    }
  }
  attr {
    key: "value"
    value {
      tensor {
        dtype: DT_FLOAT
        tensor_shape {
          dim {
            size: 3
          }
        }
        tensor_content: "\000\000\366B\000\000\352B\000\000\320B"
      }
    }
  }
}
node {
  name: "input_mean_normalization/sub"
  op: "Sub"
  input: "identity_layer/Identity"
  input: "input_mean_normalization/sub/y"
  attr {
    key: "T"
    value {
      type: DT_FLOAT
    }
  }
}
node {
  name: "input_stddev_normalization/truediv/y"
  op: "Const"
  attr {
    key: "dtype"
    value {
      type: DT_FLOAT
    }
  }
  attr {
    key: "value"
    value {
      tensor {
        dtype: DT_FLOAT
        tensor_shape {
        }
        float_val: 127.5
      }
    }
  }
}
node {
  name: "input_stddev_normalization/truediv"
  op: "RealDiv"
  input: "input_mean_normalization/sub"
  input: "input_stddev_normalization/truediv/y"
  attr {
    key: "T"
    value {
      type: DT_FLOAT
    }
  }
}
node {
  name: "input_channel_swap/strided_slice/stack"
  op: "Const"
  attr {
    key: "dtype"
    value {
      type: DT_INT32
    }
  }
  attr {
    key: "value"
    value {
      tensor {
        dtype: DT_INT32
        tensor_shape {
          dim {
            size: 2
          }
        }
        tensor_content: "\000\000\000\000\000\000\000\000"
      }
    }
  }
}
node {
  name: "input_channel_swap/strided_slice/stack_1"
  op: "Const"
  attr {
    key: "dtype"
    value {
      type: DT_INT32
    }
  }
  attr {
    key: "value"
    value {
      tensor {
        dtype: DT_INT32
        tensor_shape {
          dim {
            size: 2
          }
        }
        tensor_content: "\000\000\000\000\000\000\000\000"
      }
    }
  }
}
node {
  name: "input_channel_swap/strided_slice/stack_2"
  op: "Const"
  attr {
    key: "dtype"
    value {
      type: DT_INT32
    }
  }
  attr {
    key: "value"
    value {
      tensor {
        dtype: DT_INT32
        tensor_shape {
          dim {
            size: 2
          }
        }
        tensor_content: "\001\000\000\000\377\377\377\377"
      }
    }
  }
}
node {
  name: "input_channel_swap/strided_slice"
  op: "StridedSlice"
  input: "input_stddev_normalization/truediv"
  input: "input_channel_swap/strided_slice/stack"
  input: "input_channel_swap/strided_slice/stack_1"
  input: "input_channel_swap/strided_slice/stack_2"
  attr {
    key: "Index"
    value {
      type: DT_INT32
    }
  }
  attr {
    key: "T"
    value {
      type: DT_FLOAT
    }
  }
  attr {
    key: "begin_mask"
    value {
      i: 2
    }
  }
  attr {
    key: "ellipsis_mask"
    value {
      i: 1
    }
  }
  attr {
    key: "end_mask"
    value {
      i: 2
    }
  }
  attr {
    key: "new_axis_mask"
    value {
      i: 0
    }
  }
  attr {
    key: "shrink_axis_mask"
    value {
      i: 0
    }
  }
}
node {
  name: "conv1_padding/Pad/paddings"
  op: "Const"
  attr {
    key: "dtype"
    value {
      type: DT_INT32
    }
  }
  attr {
    key: "value"
    value {
      tensor {
        dtype: DT_INT32
        tensor_shape {
          dim {
            size: 4
          }
          dim {
            size: 2
          }
        }
        tensor_content: "…"
      }
    }
  }
}
node {
  name: "conv1_padding/Pad"
  op: "Pad"
  input: "input_channel_swap/strided_slice"
  input: "conv1_padding/Pad/paddings"
  attr {
    key: "T"
    value {
      type: DT_FLOAT
    }
  }
  attr {
    key: "Tpaddings"
    value {
      type: DT_INT32
    }
  }
}
node {
  name: "conv0/random_uniform/shape"
  op: "Const"
  attr {
    key: "dtype"
    value {
      type: DT_INT32
    }
  }
  attr {
    key: "value"
    value {
      tensor {
        dtype: DT_INT32
        tensor_shape {
          dim {
            size: 4
          }
        }
        tensor_content: "\003\000\000\000\003\000\000\000\003\000\000\000 \000\000\000"
      }
    }
  }
}
node {
  name: "conv0/random_uniform/min"
  op: "Const"
  attr {
    key: "dtype"
    value {
      type: DT_FLOAT
    }
  }
  attr {
    key: "value"
    value {
      tensor {
        dtype: DT_FLOAT
        tensor_shape {
        }
        float_val: -0.1380131095647812
      }
    }
  }
}
node {
  name: "conv0/random_uniform/max"
  op: "Const"
  attr {
    key: "dtype"
    value {
      type: DT_FLOAT
    }
  }
  attr {
    key: "value"
    value {
      tensor {
        dtype: DT_FLOAT
        tensor_shape {
        }
        float_val: 0.1380131095647812
      }
    }
  }
}
node {
  name: "conv0/random_uniform/RandomUniform"
  op: "RandomUniform"
  input: "conv0/random_uniform/shape"
  attr {
    key: "T"
    value {
      type: DT_INT32
    }
  }
  attr {
    key: "dtype"
    value {
      type: DT_FLOAT
    }
  }
  attr {
    key: "seed"
    value {
      i: 87654321
    }
  }
  attr {
    key: "seed2"
    value {
      i: 1416255
    }
  }
}
node {
  name: "conv0/random_uniform/sub"
  op: "Sub"
  input: "conv0/random_uniform/max"
  input: "conv0/random_uniform/min"
  attr {
    key: "T"
    value {
      type: DT_FLOAT
    }
  }
}
node {
  name: "conv0/random_uniform/mul"
  op: "Mul"
  input: "conv0/random_uniform/RandomUniform"
  input: "conv0/random_uniform/sub"
  attr {
    key: "T"
    value {
      type: DT_FLOAT
    }
  }
}
node {
  name: "conv0/random_uniform"
  op: "Add"
  input: "conv0/random_uniform/mul"
  input: "conv0/random_uniform/min"
  attr {
    key: "T"
    value {
      type: DT_FLOAT
    }
  }
}
node {
  name: "conv0/kernel"
  op: "VariableV2"
  attr {
    key: "container"
    value {
      s: ""
    }
  }
  attr {
    key: "dtype"
    value {
      type: DT_FLOAT
    }
  }
  attr {
    key: "shape"
    value {
      shape {
        dim {
          size: 3
        }
        dim {
          size: 3
        }
        dim {
          size: 3
        }
        dim {
          size: 32
        }
      }
    }
  }
  attr {
    key: "shared_name"
    value {
      s: ""
    }
  }
}
node {
  name: "conv0/kernel/Assign"
  op: "Assign"
  input: "conv0/kernel"
  input: "conv0/random_uniform"
  attr {
    key: "T"
    value {
      type: DT_FLOAT
    }
  }
  attr {
    key: "_class"
    value {
      list {
        s: "loc:@conv0/kernel"
      }
    }
  }
  attr {
    key: "use_locking"
    value {
      b: true
    }
  }
  attr {
    key: "validate_shape"
    value {
      b: true
    }
  }
}
node {
  name: "conv0/kernel/read"
  op: "Identity"
  input: "conv0/kernel"
  attr {
    key: "T"
    value {
      type: DT_FLOAT
    }
  }
  attr {
    key: "_class"
    value {
      list {
        s: "loc:@conv0/kernel"
      }
    }
  }
}
node {
  name: "conv0/convolution/dilation_rate"
  op: "Const"
  attr {
    key: "dtype"
    value {
      type: DT_INT32
    }
  }
  attr {
    key: "value"
    value {
      tensor {
        dtype: DT_INT32
        tensor_shape {
          dim {
            size: 2
          }
        }
        tensor_content: "\001\000\000\000\001\000\000\000"
      }
    }
  }
}
node {
  name: "conv0/convolution"
  op: "Conv2D"
  input: "conv1_padding/Pad"
  input: "conv0/kernel/read"
  attr {
    key: "T"
    value {
      type: DT_FLOAT
    }
  }
  attr {
    key: "data_format"
    value {
      s: "NHWC"
    }
  }
  attr {
    key: "dilations"
    value {
      list {
        i: 1
        i: 1
        i: 1
        i: 1
      }
    }
  }
  attr {
    key: "padding"
    value {
      s: "VALID"
    }
  }
  attr {
    key: "strides"
    value {
      list {
        i: 1
        i: 2
        i: 2
        i: 1
      }
    }
  }
  attr {
    key: "use_cudnn_on_gpu"
    value {
      b: true
    }
  }
}
node {
  name: "conv0/bn/Const"
  op: "Const"
  attr {
    key: "dtype"
    value {
      type: DT_FLOAT
    }
  }
  attr {
    key: "value"
    value {
      tensor {
        dtype: DT_FLOAT
        tensor_shape {
          dim {
            size: 32
          }
        }
        float_val: 1.0
      }
    }
  }
}
node {
  name: "conv0/bn/gamma"
  op: "VariableV2"
  attr {
    key: "container"
    value {
      s: ""
    }
  }
  attr {
    key: "dtype"
    value {
      type: DT_FLOAT
    }
  }
  attr {
    key: "shape"
    value {
      shape {
        dim {
          size: 32
        }
      }
    }
  }
  attr {
    key: "shared_name"
    value {
      s: ""
    }
  }
}
node {
  name: "conv0/bn/gamma/Assign"
  op: "Assign"
  input: "conv0/bn/gamma"
  input: "conv0/bn/Const"
  attr {
    key: "T"
    value {
      type: DT_FLOAT
    }
  }
  attr {
    key: "_class"
    value {
      list {
        s: "loc:@conv0/bn/gamma"
      }
    }
  }
  attr {
    key: "use_locking"
    value {
      b: true
    }
  }
  attr {
    key: "validate_shape"
    value {
      b: true
    }
  }
}
node {
  name: "conv0/bn/gamma/read"
  op: "Identity"
  input: "conv0/bn/gamma"
  attr {
    key: "T"
    value {
      type: DT_FLOAT
    }
  }
  attr {
    key: "_class"
    value {
      list {
        s: "loc:@conv0/bn/gamma"
      }
    }
  }
}
node {
  name: "conv0/bn/Const_1"
  op: "Const"
  attr {
    key: "dtype"
    value {
      type: DT_FLOAT
    }
  }
  attr {
    key: "value"
    value {
      tensor {
        dtype: DT_FLOAT
        tensor_shape {
          dim {
            size: 32
          }
        }
        float_val: 0.0
      }
    }
  }
}
node {
  name: "conv0/bn/beta"
  op: "VariableV2"
  attr {
    key: "container"
    value {
      s: ""
    }
  }
  attr {
    key: "dtype"
    value {
      type: DT_FLOAT
    }
  }
  attr {
    key: "shape"
    value {
      shape {
        dim {
          size: 32
        }
      }
    }
  }
  attr {
    key: "shared_name"
    value {
      s: ""
    }
  }
}
node {
  name: "conv0/bn/beta/Assign"
  op: "Assign"
  input: "conv0/bn/beta"
  input: "conv0/bn/Const_1"
  attr {
    key: "T"
    value {
      type: DT_FLOAT
    }
  }
  attr {
    key: "_class"
    value {
      list {
        s: "loc:@conv0/bn/beta"
      }
    }
  }
  attr {
    key: "use_locking"
    value {
      b: true
    }
  }
  attr {
    key: "validate_shape"
    value {
      b: true
    }
  }
}
node {
  name: "conv0/bn/beta/read"
  op: "Identity"
  input: "conv0/bn/beta"
  attr {
    key: "T"
    value {
      type: DT_FLOAT
    }
  }
  attr {
    key: "_class"
    value {
      list {
        s: "loc:@conv0/bn/beta"
      }
    }
  }
}
node {
  name: "conv0/bn/Const_2"
  op: "Const"
  attr {
    key: "dtype"
    value {
      type: DT_FLOAT
    }
  }
  attr {
    key: "value"
    value {
      tensor {
        dtype: DT_FLOAT
        tensor_shape {
          dim {
            size: 32
          }
        }
        float_val: 0.0
      }
    }
  }
}
node {
  name: "conv0/bn/moving_mean"
  op: "VariableV2"
  attr {
    key: "container"
    value {
      s: ""
    }
  }
  attr {
    key: "dtype"
    value {
      type: DT_FLOAT
    }
  }
  attr {
    key: "shape"
    value {
      shape {
        dim {
          size: 32
        }
      }
    }
  }
  attr {
    key: "shared_name"
    value {
      s: ""
    }
  }
}
node {
  name: "conv0/bn/moving_mean/Assign"
  op: "Assign"
  input: "conv0/bn/moving_mean"
  input: "conv0/bn/Const_2"
  attr {
    key: "T"
    value {
      type: DT_FLOAT
    }
  }
  attr {
    key: "_class"
    value {
      list {
        s: "loc:@conv0/bn/moving_mean"
      }
    }
  }
  attr {
    key: "use_locking"
    value {
      b: true
    }
  }
  attr {
    key: "validate_shape"
    value {
      b: true
    }
  }
}
node {
  name: "conv0/bn/moving_mean/read"
  op: "Identity"
  input: "conv0/bn/moving_mean"
  attr {
    key: "T"
    value {
      type: DT_FLOAT
    }
  }
  attr {
    key: "_class"
    value {
      list {
        s: "loc:@conv0/bn/moving_mean"
      }
    }
  }
}
node {
  name: "conv0/bn/Const_3"
  op: "Const"
  attr {
    key: "dtype"
    value {
      type: DT_FLOAT
    }
  }
  attr {
    key: "value"
    value {
      tensor {
        dtype: DT_FLOAT
        tensor_shape {
          dim {
            size: 32
          }
        }
        float_val: 1.0
      }
    }
  }
}
node {
  name: "conv0/bn/moving_variance"
  op: "VariableV2"
  attr {
    key: "container"
    value {
      s: ""
    }
  }
  attr {
    key: "dtype"
    value {
      type: DT_FLOAT
    }
  }
  attr {
    key: "shape"
    value {
      shape {
        dim {
          size: 32
        }
      }
    }
  }
  attr {
    key: "shared_name"
    value {
      s: ""
    }
  }
}
node {
  name: "conv0/bn/moving_variance/Assign"
  op: "Assign"
  input: "conv0/bn/moving_variance"
  input: "conv0/bn/Const_3"
  attr {
    key: "T"
    value {
      type: DT_FLOAT
    }
  }
  attr {
    key: "_class"
    value {
      list {
        s: "loc:@conv0/bn/moving_variance"
      }
    }
  }
  attr {
    key: "use_locking"
    value {
      b: true
    }
  }
  attr {
    key: "validate_shape"
    value {
      b: true
    }
  }
}
node {
  name: "conv0/bn/moving_variance/read"
  op: "Identity"
  input: "conv0/bn/moving_variance"
  attr {
    key: "T"
    value {
      type: DT_FLOAT
    }
  }
  attr {
    key: "_class"
    value {
      list {
        s: "loc:@conv0/bn/moving_variance"
      }
    }
  }
}
node {
  name: "conv0/bn/IsVariableInitialized"
  op: "IsVariableInitialized"
  input: "conv0/kernel"
  attr {
    key: "_class"
    value {
      list {
        s: "loc:@conv0/kernel"
      }
    }
  }
  attr {
    key: "dtype"
    value {
      type: DT_FLOAT
    }
  }
}
node {
  name: "conv0/bn/IsVariableInitialized_1"
  op: "IsVariableInitialized"
  input: "conv0/bn/gamma"
  attr {
    key: "_class"
    value {
      list {
        s: "loc:@conv0/bn/gamma"
      }
    }
  }
  attr {
    key: "dtype"
    value {
      type: DT_FLOAT
    }
  }
}
node {
  name: "conv0/bn/IsVariableInitialized_2"
  op: "IsVariableInitialized"
  input: "conv0/bn/beta"
  attr {
    key: "_class"
    value {
      list {
        s: "loc:@conv0/bn/beta"
      }
    }
  }
  attr {
    key: "dtype"
    value {
      type: DT_FLOAT
    }
  }
}
node {
  name: "conv0/bn/IsVariableInitialized_3"
  op: "IsVariableInitialized"
  input: "conv0/bn/moving_mean"
  attr {
    key: "_class"
    value {
      list {
        s: "loc:@conv0/bn/moving_mean"
      }
    }
  }
  attr {
    key: "dtype"
    value {
      type: DT_FLOAT
    }
  }
}
node {
  name: "conv0/bn/IsVariableInitialized_4"
  op: "IsVariableInitialized"
  input: "conv0/bn/moving_variance"
  attr {
    key: "_class"
    value {
      list {
        s: "loc:@conv0/bn/moving_variance"
      }
    }
  }
  attr {
    key: "dtype"
    value {
      type: DT_FLOAT
    }
  }
}
node {
  name: "conv0/bn/init"
  op: "NoOp"
  input: "^conv0/bn/beta/Assign"
  input: "^conv0/bn/gamma/Assign"
  input: "^conv0/bn/moving_mean/Assign"
  input: "^conv0/bn/moving_variance/Assign"
  input: "^conv0/kernel/Assign"
}
node {
  name: "conv0/bn/Const_4"
  op: "Const"
  attr {
    key: "dtype"
    value {
      type: DT_FLOAT
    }
  }
  attr {
    key: "value"
    value {
      tensor {
        dtype: DT_FLOAT
        tensor_shape {
          dim {
          }
        }
      }
    }
  }
}
node {
  name: "conv0/bn/Const_5"
  op: "Const"
  attr {
    key: "dtype"
    value {
      type: DT_FLOAT
    }
  }
  attr {
    key: "value"
    value {
      tensor {
        dtype: DT_FLOAT
        tensor_shape {
          dim {
          }
        }
      }
    }
  }
}
node {
  name: "conv0/bn/FusedBatchNorm"
  op: "FusedBatchNorm"
  input: "conv0/convolution"
  input: "conv0/bn/gamma/read"
  input: "conv0/bn/beta/read"
  input: "conv0/bn/Const_4"
  input: "conv0/bn/Const_5"
  attr {
    key: "T"
    value {
      type: DT_FLOAT
    }
  }
  attr {
    key: "data_format"
    value {
      s: "NHWC"
    }
  }
  attr {
    key: "epsilon"
    value {
      f: 1.0009999641624745e-05
    }
  }
  attr {
    key: "is_training"
    value {
      b: true
    }
  }
}
node {
  name: "conv0/bn/Shape"
  op: "Shape"
  input: "conv0/convolution"
  attr {
    key: "T"
    value {
      type: DT_FLOAT
    }
  }
  attr {
    key: "out_type"
    value {
      type: DT_INT32
    }
  }
}
node {
  name: "conv0/bn/strided_slice/stack"
  op: "Const"
  attr {
    key: "dtype"
    value {
      type: DT_INT32
    }
  }
  attr {
    key: "value"
    value {
      tensor {
        dtype: DT_INT32
        tensor_shape {
          dim {
            size: 1
          }
        }
        int_val: 0
      }
    }
  }
}
node {
  name: "conv0/bn/strided_slice/stack_1"
  op: "Const"
  attr {
    key: "dtype"
    value {
      type: DT_INT32
    }
  }
  attr {
    key: "value"
    value {
      tensor {
        dtype: DT_INT32
        tensor_shape {
          dim {
            size: 1
          }
        }
        int_val: 1
      }
    }
  }
}
node {
  name: "conv0/bn/strided_slice/stack_2"
  op: "Const"
  attr {
    key: "dtype"
    value {
      type: DT_INT32
    }
  }
  attr {
    key: "value"
    value {
      tensor {
        dtype: DT_INT32
        tensor_shape {
          dim {
            size: 1
          }
        }
        int_val: 1
      }
    }
  }
}
node {
  name: "conv0/bn/strided_slice"
  op: "StridedSlice"
  input: "conv0/bn/Shape"
  input: "conv0/bn/strided_slice/stack"
  input: "conv0/bn/strided_slice/stack_1"
  input: "conv0/bn/strided_slice/stack_2"
  attr {
    key: "Index"
    value {
      type: DT_INT32
    }
  }
  attr {
    key: "T"
    value {
      type: DT_INT32
    }
  }
  attr {
    key: "begin_mask"
    value {
      i: 0
    }
  }
  attr {
    key: "ellipsis_mask"
    value {
      i: 0
    }
  }
  attr {
    key: "end_mask"
    value {
      i: 0
    }
  }
  attr {
    key: "new_axis_mask"
    value {
      i: 0
    }
  }
  attr {
    key: "shrink_axis_mask"
    value {
      i: 1
    }
  }
}
node {
  name: "conv0/bn/Shape_1"
  op: "Shape"
  input: "conv0/convolution"
  attr {
    key: "T"
    value {
      type: DT_FLOAT
    }
  }
  attr {
    key: "out_type"
    value {
      type: DT_INT32
    }
  }
}
node {
  name: "conv0/bn/strided_slice_1/stack"
  op: "Const"
  attr {
    key: "dtype"
    value {
      type: DT_INT32
    }
  }
  attr {
    key: "value"
    value {
      tensor {
        dtype: DT_INT32
        tensor_shape {
          dim {
            size: 1
          }
        }
        int_val: 1
      }
    }
  }
}
node {
  name: "conv0/bn/strided_slice_1/stack_1"
  op: "Const"
  attr {
    key: "dtype"
    value {
      type: DT_INT32
    }
  }
  attr {
    key: "value"
    value {
      tensor {
        dtype: DT_INT32
        tensor_shape {
          dim {
            size: 1
          }
        }
        int_val: 2
      }
    }
  }
}
node {
  name: "conv0/bn/strided_slice_1/stack_2"
  op: "Const"
  attr {
    key: "dtype"
    value {
      type: DT_INT32
    }
  }
  attr {
    key: "value"
    value {
      tensor {
        dtype: DT_INT32
        tensor_shape {
          dim {
            size: 1
          }
        }
        int_val: 1
      }
    }
  }
}
node {
  name: "conv0/bn/strided_slice_1"
  op: "StridedSlice"
  input: "conv0/bn/Shape_1"
  input: "conv0/bn/strided_slice_1/stack"
  input: "conv0/bn/strided_slice_1/stack_1"
  input: "conv0/bn/strided_slice_1/stack_2"
  attr {
    key: "Index"
    value {
      type: DT_INT32
    }
  }
  attr {
    key: "T"
    value {
      type: DT_INT32
    }
  }
  attr {
    key: "begin_mask"
    value {
      i: 0
    }
  }
  attr {
    key: "ellipsis_mask"
    value {
      i: 0
    }
  }
  attr {
    key: "end_mask"
    value {
      i: 0
    }
  }
  attr {
    key: "new_axis_mask"
    value {
      i: 0
    }
  }
  attr {
    key: "shrink_axis_mask"
    value {
      i: 1
    }
  }
}
node {
  name: "conv0/bn/Shape_2"
  op: "Shape"
  input: "conv0/convolution"
  attr {
    key: "T"
    value {
      type: DT_FLOAT
    }
  }
  attr {
    key: "out_type"
    value {
      type: DT_INT32
    }
  }
}
node {
  name: "conv0/bn/strided_slice_2/stack"
  op: "Const"
  attr {
    key: "dtype"
    value {
      type: DT_INT32
    }
  }
  attr {
    key: "value"
    value {
      tensor {
        dtype: DT_INT32
        tensor_shape {
          dim {
            size: 1
          }
        }
        int_val: 2
      }
    }
  }
}
node {
  name: "conv0/bn/strided_slice_2/stack_1"
  op: "Const"
  attr {
    key: "dtype"
    value {
      type: DT_INT32
    }
  }
  attr {
    key: "value"
    value {
      tensor {
        dtype: DT_INT32
        tensor_shape {
          dim {
            size: 1
          }
        }
        int_val: 3
      }
    }
  }
}
node {
  name: "conv0/bn/strided_slice_2/stack_2"
  op: "Const"
  attr {
    key: "dtype"
    value {
      type: DT_INT32
    }
  }
  attr {
    key: "value"
    value {
      tensor {
        dtype: DT_INT32
        tensor_shape {
          dim {
            size: 1
          }
        }
        int_val: 1
      }
    }
  }
}
node {
  name: "conv0/bn/strided_slice_2"
  op: "StridedSlice"
  input: "conv0/bn/Shape_2"
  input: "conv0/bn/strided_slice_2/stack"
  input: "conv0/bn/strided_slice_2/stack_1"
  input: "conv0/bn/strided_slice_2/stack_2"
  attr {
    key: "Index"
    value {
      type: DT_INT32
    }
  }
  attr {
    key: "T"
    value {
      type: DT_INT32
    }
  }
  attr {
    key: "begin_mask"
    value {
      i: 0
    }
  }
  attr {
    key: "ellipsis_mask"
    value {
      i: 0
    }
  }
  attr {
    key: "end_mask"
    value {
      i: 0
    }
  }
  attr {
    key: "new_axis_mask"
    value {
      i: 0
    }
  }
  attr {
    key: "shrink_axis_mask"
    value {
      i: 1
    }
  }
}
node {
  name: "conv0/bn/Rank/packed"
  op: "Pack"
  input: "conv0/bn/strided_slice"
  input: "conv0/bn/strided_slice_1"
  input: "conv0/bn/strided_slice_2"
  attr {
    key: "N"
    value {
      i: 3
    }
  }
  attr {
    key: "T"
    value {
      type: DT_INT32
    }
  }
  attr {
    key: "axis"
    value {
      i: 0
    }
  }
}
node {
  name: "conv0/bn/Rank"
  op: "Const"
  attr {
    key: "dtype"
    value {
      type: DT_INT32
    }
  }
  attr {
    key: "value"
    value {
      tensor {
        dtype: DT_INT32
        tensor_shape {
        }
        int_val: 1
      }
    }
  }
}
node {
  name: "conv0/bn/range/start"
  op: "Const"
  attr {
    key: "dtype"
    value {
      type: DT_INT32
    }
  }
  attr {
    key: "value"
    value {
      tensor {
        dtype: DT_INT32
        tensor_shape {
        }
        int_val: 0
      }
    }
  }
}
node {
  name: "conv0/bn/range/delta"
  op: "Const"
  attr {
    key: "dtype"
    value {
      type: DT_INT32
    }
  }
  attr {
    key: "value"
    value {
      tensor {
        dtype: DT_INT32
        tensor_shape {
        }
        int_val: 1
      }
    }
  }
}
node {
  name: "conv0/bn/range"
  op: "Range"
  input: "conv0/bn/range/start"
  input: "conv0/bn/Rank"
  input: "conv0/bn/range/delta"
  attr {
    key: "Tidx"
    value {
      type: DT_INT32
    }
  }
}
node {
  name: "conv0/bn/Prod/input"
  op: "Pack"
  input: "conv0/bn/strided_slice"
  input: "conv0/bn/strided_slice_1"
  input: "conv0/bn/strided_slice_2"
  attr {
    key: "N"
    value {
      i: 3
    }
  }
  attr {
    key: "T"
    value {
      type: DT_INT32
    }
  }
  attr {
    key: "axis"
    value {
      i: 0
    }
  }
}
node {
  name: "conv0/bn/Prod"
  op: "Prod"
  input: "conv0/bn/Prod/input"
  input: "conv0/bn/range"
  attr {
    key: "T"
    value {
      type: DT_INT32
    }
  }
  attr {
    key: "Tidx"
    value {
      type: DT_INT32
    }
  }
  attr {
    key: "keep_dims"
    value {
      b: false
    }
  }
}
node {
  name: "conv0/bn/Cast"
  op: "Cast"
  input: "conv0/bn/Prod"
  attr {
    key: "DstT"
    value {
      type: DT_FLOAT
    }
  }
  attr {
    key: "SrcT"
    value {
      type: DT_INT32
    }
  }
}
node {
  name: "conv0/bn/sub/y"
  op: "Const"
  attr {
    key: "dtype"
    value {
      type: DT_FLOAT
    }
  }
  attr {
    key: "value"
    value {
      tensor {
        dtype: DT_FLOAT
        tensor_shape {
        }
        float_val: 1.0000100135803223
      }
    }
  }
}
node {
  name: "conv0/bn/sub"
  op: "Sub"
  input: "conv0/bn/Cast"
  input: "conv0/bn/sub/y"
  attr {
    key: "T"
    value {
      type: DT_FLOAT
    }
  }
}
node {
  name: "conv0/bn/truediv"
  op: "RealDiv"
  input: "conv0/bn/Cast"
  input: "conv0/bn/sub"
  attr {
    key: "T"
    value {
      type: DT_FLOAT
    }
  }
}
node {
  name: "conv0/bn/mul"
  op: "Mul"
  input: "conv0/bn/FusedBatchNorm:2"
  input: "conv0/bn/truediv"
  attr {
    key: "T"
    value {
      type: DT_FLOAT
    }
  }
}
node {
  name: "conv0/bn/AssignMovingAvg/decay"
  op: "Const"
  attr {
    key: "_class"
    value {
      list {
        s: "loc:@conv0/bn/moving_mean"
      }
    }
  }
  attr {
    key: "dtype"
    value {
      type: DT_FLOAT
    }
  }
  attr {
    key: "value"
    value {
      tensor {
        dtype: DT_FLOAT
        tensor_shape {
        }
        float_val: 0.009999999776482582
      }
    }
  }
}
node {
  name: "conv0/bn/AssignMovingAvg/conv0/bn/moving_mean/zeros"
  op: "Const"
  attr {
    key: "_class"
    value {
      list {
        s: "loc:@conv0/bn/moving_mean"
      }
    }
  }
  attr {
    key: "dtype"
    value {
      type: DT_FLOAT
    }
  }
  attr {
    key: "value"
    value {
      tensor {
        dtype: DT_FLOAT
        tensor_shape {
          dim {
            size: 32
          }
        }
        float_val: 0.0
      }
    }
  }
}
node {
  name: "conv0/bn/moving_mean/biased"
  op: "VariableV2"
  attr {
    key: "_class"
    value {
      list {
        s: "loc:@conv0/bn/moving_mean"
      }
    }
  }
  attr {
    key: "container"
    value {
      s: ""
    }
  }
  attr {
    key: "dtype"
    value {
      type: DT_FLOAT
    }
  }
  attr {
    key: "shape"
    value {
      shape {
        dim {
          size: 32
        }
      }
    }
  }
  attr {
    key: "shared_name"
    value {
      s: ""
    }
  }
}
node {
  name: "conv0/bn/moving_mean/biased/Assign"
  op: "Assign"
  input: "conv0/bn/moving_mean/biased"
  input: "conv0/bn/AssignMovingAvg/conv0/bn/moving_mean/zeros"
  attr {
    key: "T"
    value {
      type: DT_FLOAT
    }
  }
  attr {
    key: "_class"
    value {
      list {
        s: "loc:@conv0/bn/moving_mean"
      }
    }
  }
  attr {
    key: "use_locking"
    value {
      b: true
    }
  }
  attr {
    key: "validate_shape"
    value {
      b: true
    }
  }
}
node {
  name: "conv0/bn/moving_mean/biased/read"
  op: "Identity"
  input: "conv0/bn/moving_mean/biased"
  attr {
    key: "T"
    value {
      type: DT_FLOAT
    }
  }
  attr {
    key: "_class"
    value {
      list {
        s: "loc:@conv0/bn/moving_mean"
      }
    }
  }
}
node {
  name: "conv0/bn/moving_mean/local_step/Initializer/zeros"
  op: "Const"
  attr {
    key: "_class"
    value {
      list {
        s: "loc:@conv0/bn/moving_mean"
      }
    }
  }
  attr {
    key: "dtype"
    value {
      type: DT_FLOAT
    }
  }
  attr {
    key: "value"
    value {
      tensor {
        dtype: DT_FLOAT
        tensor_shape {
        }
        float_val: 0.0
      }
    }
  }
}
node {
  name: "conv0/bn/moving_mean/local_step"
  op: "VariableV2"
  attr {
    key: "_class"
    value {
      list {
        s: "loc:@conv0/bn/moving_mean"
      }
    }
  }
  attr {
    key: "container"
    value {
      s: ""
    }
  }
  attr {
    key: "dtype"
    value {
      type: DT_FLOAT
    }
  }
  attr {
    key: "shape"
    value {
      shape {
      }
    }
  }
  attr {
    key: "shared_name"
    value {
      s: ""
    }
  }
}
node {
  name: "conv0/bn/moving_mean/local_step/Assign"
  op: "Assign"
  input: "conv0/bn/moving_mean/local_step"
  input: "conv0/bn/moving_mean/local_step/Initializer/zeros"
  attr {
    key: "T"
    value {
      type: DT_FLOAT
    }
  }
  attr {
    key: "_class"
    value {
      list {
        s: "loc:@conv0/bn/moving_mean"
      }
    }
  }
  attr {
    key: "use_locking"
    value {
      b: true
    }
  }
  attr {
    key: "validate_shape"
    value {
      b: true
    }
  }
}
node {
  name: "conv0/bn/moving_mean/local_step/read"
  op: "Identity"
  input: "conv0/bn/moving_mean/local_step"
  attr {
    key: "T"
    value {
      type: DT_FLOAT
    }
  }
  attr {
    key: "_class"
    value {
      list {
        s: "loc:@conv0/bn/moving_mean"
      }
    }
  }
}
node {
  name: "conv0/bn/AssignMovingAvg/conv0/bn/moving_mean/sub"
  op: "Sub"
  input: "conv0/bn/moving_mean/biased/read"
  input: "conv0/bn/FusedBatchNorm:1"
  attr {
    key: "T"
    value {
      type: DT_FLOAT
    }
  }
  attr {
    key: "_class"
    value {
      list {
        s: "loc:@conv0/bn/moving_mean"
      }
    }
  }
}
node {
  name: "conv0/bn/AssignMovingAvg/conv0/bn/moving_mean/mul"
  op: "Mul"
  input: "conv0/bn/AssignMovingAvg/conv0/bn/moving_mean/sub"
  input: "conv0/bn/AssignMovingAvg/decay"
  attr {
    key: "T"
    value {
      type: DT_FLOAT
    }
  }
  attr {
    key: "_class"
    value {
      list {
        s: "loc:@conv0/bn/moving_mean"
      }
    }
  }
}
node {
  name: "conv0/bn/AssignMovingAvg/conv0/bn/moving_mean/conv0/bn/moving_mean"
  op: "AssignSub"
  input: "conv0/bn/moving_mean/biased"
  input: "conv0/bn/AssignMovingAvg/conv0/bn/moving_mean/mul"
  attr {
    key: "T"
    value {
      type: DT_FLOAT
    }
  }
  attr {
    key: "_class"
    value {
      list {
        s: "loc:@conv0/bn/moving_mean"
      }
    }
  }
  attr {
    key: "use_locking"
    value {
      b: false
    }
  }
}
node {
  name: "conv0/bn/AssignMovingAvg/conv0/bn/moving_mean/AssignAdd/value"
  op: "Const"
  attr {
    key: "_class"
    value {
      list {
        s: "loc:@conv0/bn/moving_mean"
      }
    }
  }
  attr {
    key: "dtype"
    value {
      type: DT_FLOAT
    }
  }
  attr {
    key: "value"
    value {
      tensor {
        dtype: DT_FLOAT
        tensor_shape {
        }
        float_val: 1.0
      }
    }
  }
}
node {
  name: "conv0/bn/AssignMovingAvg/conv0/bn/moving_mean/AssignAdd"
  op: "AssignAdd"
  input: "conv0/bn/moving_mean/local_step"
  input: "conv0/bn/AssignMovingAvg/conv0/bn/moving_mean/AssignAdd/value"
  attr {
    key: "T"
    value {
      type: DT_FLOAT
    }
  }
  attr {
    key: "_class"
    value {
      list {
        s: "loc:@conv0/bn/moving_mean"
      }
    }
  }
  attr {
    key: "use_locking"
    value {
      b: false
    }
  }
}
node {
  name: "conv0/bn/AssignMovingAvg/conv0/bn/moving_mean/read"
  op: "Identity"
  input: "conv0/bn/moving_mean/biased"
  input: "^conv0/bn/AssignMovingAvg/conv0/bn/moving_mean/AssignAdd"
  input: "^conv0/bn/AssignMovingAvg/conv0/bn/moving_mean/conv0/bn/moving_mean"
  attr {
    key: "T"
    value {
      type: DT_FLOAT
    }
  }
  attr {
    key: "_class"
    value {
      list {
        s: "loc:@conv0/bn/moving_mean"
      }
    }
  }
}
node {
  name: "conv0/bn/AssignMovingAvg/conv0/bn/moving_mean/sub_1/x"
  op: "Const"
  input: "^conv0/bn/AssignMovingAvg/conv0/bn/moving_mean/AssignAdd"
  input: "^conv0/bn/AssignMovingAvg/conv0/bn/moving_mean/conv0/bn/moving_mean"
  attr {
    key: "_class"
    value {
      list {
        s: "loc:@conv0/bn/moving_mean"
      }
    }
  }
  attr {
    key: "dtype"
    value {
      type: DT_FLOAT
    }
  }
  attr {
    key: "value"
    value {
      tensor {
        dtype: DT_FLOAT
        tensor_shape {
        }
        float_val: 1.0
      }
    }
  }
}
node {
  name: "conv0/bn/AssignMovingAvg/conv0/bn/moving_mean/sub_1"
  op: "Sub"
  input: "conv0/bn/AssignMovingAvg/conv0/bn/moving_mean/sub_1/x"
  input: "conv0/bn/AssignMovingAvg/decay"
  attr {
    key: "T"
    value {
      type: DT_FLOAT
    }
  }
  attr {
    key: "_class"
    value {
      list {
        s: "loc:@conv0/bn/moving_mean"
      }
    }
  }
}
node {
  name: "conv0/bn/AssignMovingAvg/conv0/bn/moving_mean/read_1"
  op: "Identity"
  input: "conv0/bn/moving_mean/local_step"
  input: "^conv0/bn/AssignMovingAvg/conv0/bn/moving_mean/AssignAdd"
  input: "^conv0/bn/AssignMovingAvg/conv0/bn/moving_mean/conv0/bn/moving_mean"
  attr {
    key: "T"
    value {
      type: DT_FLOAT
    }
  }
  attr {
    key: "_class"
    value {
      list {
        s: "loc:@conv0/bn/moving_mean"
      }
    }
  }
}
node {
  name: "conv0/bn/AssignMovingAvg/conv0/bn/moving_mean/Pow"
  op: "Pow"
  input: "conv0/bn/AssignMovingAvg/conv0/bn/moving_mean/sub_1"
  input: "conv0/bn/AssignMovingAvg/conv0/bn/moving_mean/read_1"
  attr {
    key: "T"
    value {
      type: DT_FLOAT
    }
  }
  attr {
    key: "_class"
    value {
      list {
        s: "loc:@conv0/bn/moving_mean"
      }
    }
  }
}
node {
  name: "conv0/bn/AssignMovingAvg/conv0/bn/moving_mean/sub_2/x"
  op: "Const"
  input: "^conv0/bn/AssignMovingAvg/conv0/bn/moving_mean/AssignAdd"
  input: "^conv0/bn/AssignMovingAvg/conv0/bn/moving_mean/conv0/bn/moving_mean"
  attr {
    key: "_class"
    value {
      list {
        s: "loc:@conv0/bn/moving_mean"
      }
    }
  }
  attr {
    key: "dtype"
    value {
      type: DT_FLOAT
    }
  }
  attr {
    key: "value"
    value {
      tensor {
        dtype: DT_FLOAT
        tensor_shape {
        }
        float_val: 1.0
      }
    }
  }
}
node {
  name: "conv0/bn/AssignMovingAvg/conv0/bn/moving_mean/sub_2"
  op: "Sub"
  input: "conv0/bn/AssignMovingAvg/conv0/bn/moving_mean/sub_2/x"
  input: "conv0/bn/AssignMovingAvg/conv0/bn/moving_mean/Pow"
  attr {
    key: "T"
    value {
      type: DT_FLOAT
    }
  }
  attr {
    key: "_class"
    value {
      list {
        s: "loc:@conv0/bn/moving_mean"
      }
    }
  }
}
node {
  name: "conv0/bn/AssignMovingAvg/conv0/bn/moving_mean/truediv"
  op: "RealDiv"
  input: "conv0/bn/AssignMovingAvg/conv0/bn/moving_mean/read"
  input: "conv0/bn/AssignMovingAvg/conv0/bn/moving_mean/sub_2"
  attr {
    key: "T"
    value {
      type: DT_FLOAT
    }
  }
  attr {
    key: "_class"
    value {
      list {
        s: "loc:@conv0/bn/moving_mean"
      }
    }
  }
}
node {
  name: "conv0/bn/AssignMovingAvg/conv0/bn/moving_mean/sub_3"
  op: "Sub"
  input: "conv0/bn/moving_mean/read"
  input: "conv0/bn/AssignMovingAvg/conv0/bn/moving_mean/truediv"
  attr {
    key: "T"
    value {
      type: DT_FLOAT
    }
  }
  attr {
    key: "_class"
    value {
      list {
        s: "loc:@conv0/bn/moving_mean"
      }
    }
  }
}
node {
  name: "conv0/bn/AssignMovingAvg"
  op: "AssignSub"
  input: "conv0/bn/moving_mean"
  input: "conv0/bn/AssignMovingAvg/conv0/bn/moving_mean/sub_3"
  attr {
    key: "T"
    value {
      type: DT_FLOAT
    }
  }
  attr {
    key: "_class"
    value {
      list {
        s: "loc:@conv0/bn/moving_mean"
      }
    }
  }
  attr {
    key: "use_locking"
    value {
      b: false
    }
  }
}
node {
  name: "conv0/bn/AssignMovingAvg_1/decay"
  op: "Const"
  attr {
    key: "_class"
    value {
      list {
        s: "loc:@conv0/bn/moving_variance"
      }
    }
  }
  attr {
    key: "dtype"
    value {
      type: DT_FLOAT
    }
  }
  attr {
    key: "value"
    value {
      tensor {
        dtype: DT_FLOAT
        tensor_shape {
        }
        float_val: 0.009999999776482582
      }
    }
  }
}
node {
  name: "conv0/bn/AssignMovingAvg_1/conv0/bn/moving_variance/zeros"
  op: "Const"
  attr {
    key: "_class"
    value {
      list {
        s: "loc:@conv0/bn/moving_variance"
      }
    }
  }
  attr {
    key: "dtype"
    value {
      type: DT_FLOAT
    }
  }
  attr {
    key: "value"
    value {
      tensor {
        dtype: DT_FLOAT
        tensor_shape {
          dim {
            size: 32
          }
        }
        float_val: 0.0
      }
    }
  }
}
node {
  name: "conv0/bn/moving_variance/biased"
  op: "VariableV2"
  attr {
    key: "_class"
    value {
      list {
        s: "loc:@conv0/bn/moving_variance"
      }
    }
  }
  attr {
    key: "container"
    value {
      s: ""
    }
  }
  attr {
    key: "dtype"
    value {
      type: DT_FLOAT
    }
  }
  attr {
    key: "shape"
    value {
      shape {
        dim {
          size: 32
        }
      }
    }
  }
  attr {
    key: "shared_name"
    value {
      s: ""
    }
  }
}
node {
  name: "conv0/bn/moving_variance/biased/Assign"
  op: "Assign"
  input: "conv0/bn/moving_variance/biased"
  input: "conv0/bn/AssignMovingAvg_1/conv0/bn/moving_variance/zeros"
  attr {
    key: "T"
    value {
      type: DT_FLOAT
    }
  }
  attr {
    key: "_class"
    value {
      list {
        s: "loc:@conv0/bn/moving_variance"
      }
    }
  }
  attr {
    key: "use_locking"
    value {
      b: true
    }
  }
  attr {
    key: "validate_shape"
    value {
      b: true
    }
  }
}
node {
  name: "conv0/bn/moving_variance/biased/read"
  op: "Identity"
  input: "conv0/bn/moving_variance/biased"
  attr {
    key: "T"
    value {
      type: DT_FLOAT
    }
  }
  attr {
    key: "_class"
    value {
      list {
        s: "loc:@conv0/bn/moving_variance"
      }
    }
  }
}
node {
  name: "conv0/bn/moving_variance/local_step/Initializer/zeros"
  op: "Const"
  attr {
    key: "_class"
    value {
      list {
        s: "loc:@conv0/bn/moving_variance"
      }
    }
  }
  attr {
    key: "dtype"
    value {
      type: DT_FLOAT
    }
  }
  attr {
    key: "value"
    value {
      tensor {
        dtype: DT_FLOAT
        tensor_shape {
        }
        float_val: 0.0
      }
    }
  }
}
node {
  name: "conv0/bn/moving_variance/local_step"
  op: "VariableV2"
  attr {
    key: "_class"
    value {
      list {
        s: "loc:@conv0/bn/moving_variance"
      }
    }
  }
  attr {
    key: "container"
    value {
      s: ""
    }
  }
  attr {
    key: "dtype"
    value {
      type: DT_FLOAT
    }
  }
  attr {
    key: "shape"
    value {
      shape {
      }
    }
  }
  attr {
    key: "shared_name"
    value {
      s: ""
    }
  }
}
node {
  name: "conv0/bn/moving_variance/local_step/Assign"
  op: "Assign"
  input: "conv0/bn/moving_variance/local_step"
  input: "conv0/bn/moving_variance/local_step/Initializer/zeros"
  attr {
    key: "T"
    value {
      type: DT_FLOAT
    }
  }
  attr {
    key: "_class"
    value {
      list {
        s: "loc:@conv0/bn/moving_variance"
      }
    }
  }
  attr {
    key: "use_locking"
    value {
      b: true
    }
  }
  attr {
    key: "validate_shape"
    value {
      b: true
    }
  }
}
node {
  name: "conv0/bn/moving_variance/local_step/read"
  op: "Identity"
  input: "conv0/bn/moving_variance/local_step"
  attr {
    key: "T"
    value {
      type: DT_FLOAT
    }
  }
  attr {
    key: "_class"
    value {
      list {
        s: "loc:@conv0/bn/moving_variance"
      }
    }
  }
}
node {
  name: "conv0/bn/AssignMovingAvg_1/conv0/bn/moving_variance/sub"
  op: "Sub"
  input: "conv0/bn/moving_variance/biased/read"
  input: "conv0/bn/mul"
  attr {
    key: "T"
    value {
      type: DT_FLOAT
    }
  }
  attr {
    key: "_class"
    value {
      list {
        s: "loc:@conv0/bn/moving_variance"
      }
    }
  }
}
node {
  name: "conv0/bn/AssignMovingAvg_1/conv0/bn/moving_variance/mul"
  op: "Mul"
  input: "conv0/bn/AssignMovingAvg_1/conv0/bn/moving_variance/sub"
  input: "conv0/bn/AssignMovingAvg_1/decay"
  attr {
    key: "T"
    value {
      type: DT_FLOAT
    }
  }
  attr {
    key: "_class"
    value {
      list {
        s: "loc:@conv0/bn/moving_variance"
      }
    }
  }
}
node {
  name: "conv0/bn/AssignMovingAvg_1/conv0/bn/moving_variance/conv0/bn/moving_variance"
  op: "AssignSub"
  input: "conv0/bn/moving_variance/biased"
  input: "conv0/bn/AssignMovingAvg_1/conv0/bn/moving_variance/mul"
  attr {
    key: "T"
    value {
      type: DT_FLOAT
    }
  }
  attr {
    key: "_class"
    value {
      list {
        s: "loc:@conv0/bn/moving_variance"
      }
    }
  }
  attr {
    key: "use_locking"
    value {
      b: false
    }
  }
}
node {
  name: "conv0/bn/AssignMovingAvg_1/conv0/bn/moving_variance/AssignAdd/value"
  op: "Const"
  attr {
    key: "_class"
    value {
      list {
        s: "loc:@conv0/bn/moving_variance"
      }
    }
  }
  attr {
    key: "dtype"
    value {
      type: DT_FLOAT
    }
  }
  attr {
    key: "value"
    value {
      tensor {
        dtype: DT_FLOAT
        tensor_shape {
        }
        float_val: 1.0
      }
    }
  }
}
node {
  name: "conv0/bn/AssignMovingAvg_1/conv0/bn/moving_variance/AssignAdd"
  op: "AssignAdd"
  input: "conv0/bn/moving_variance/local_step"
  input: "conv0/bn/AssignMovingAvg_1/conv0/bn/moving_variance/AssignAdd/value"
  attr {
    key: "T"
    value {
      type: DT_FLOAT
    }
  }
  attr {
    key: "_class"
    value {
      list {
        s: "loc:@conv0/bn/moving_variance"
      }
    }
  }
  attr {
    key: "use_locking"
    value {
      b: false
    }
  }
}
node {
  name: "conv0/bn/AssignMovingAvg_1/conv0/bn/moving_variance/read"
  op: "Identity"
  input: "conv0/bn/moving_variance/biased"
  input: "^conv0/bn/AssignMovingAvg_1/conv0/bn/moving_variance/AssignAdd"
  input: "^conv0/bn/AssignMovingAvg_1/conv0/bn/moving_variance/conv0/bn/moving_variance"
  attr {
    key: "T"
    value {
      type: DT_FLOAT
    }
  }
  attr {
    key: "_class"
    value {
      list {
        s: "loc:@conv0/bn/moving_variance"
      }
    }
  }
}
node {
  name: "conv0/bn/AssignMovingAvg_1/conv0/bn/moving_variance/sub_1/x"
  op: "Const"
  input: "^conv0/bn/AssignMovingAvg_1/conv0/bn/moving_variance/AssignAdd"
  input: "^conv0/bn/AssignMovingAvg_1/conv0/bn/moving_variance/conv0/bn/moving_variance"
  attr {
    key: "_class"
    value {
      list {
        s: "loc:@conv0/bn/moving_variance"
      }
    }
  }
  attr {
    key: "dtype"
    value {
      type: DT_FLOAT
    }
  }
  attr {
    key: "value"
    value {
      tensor {
        dtype: DT_FLOAT
        tensor_shape {
        }
        float_val: 1.0
      }
    }
  }
}
node {
  name: "conv0/bn/AssignMovingAvg_1/conv0/bn/moving_variance/sub_1"
  op: "Sub"
  input: "conv0/bn/AssignMovingAvg_1/conv0/bn/moving_variance/sub_1/x"
  input: "conv0/bn/AssignMovingAvg_1/decay"
  attr {
    key: "T"
    value {
      type: DT_FLOAT
    }
  }
  attr {
    key: "_class"
    value {
      list {
        s: "loc:@conv0/bn/moving_variance"
      }
    }
  }
}
node {
  name: "conv0/bn/AssignMovingAvg_1/conv0/bn/moving_variance/read_1"
  op: "Identity"
  input: "conv0/bn/moving_variance/local_step"
  input: "^conv0/bn/AssignMovingAvg_1/conv0/bn/moving_variance/AssignAdd"
  input: "^conv0/bn/AssignMovingAvg_1/conv0/bn/moving_variance/conv0/bn/moving_variance"
  attr {
    key: "T"
    value {
      type: DT_FLOAT
    }
  }
  attr {
    key: "_class"
    value {
      list {
        s: "loc:@conv0/bn/moving_variance"
      }
    }
  }
}
node {
  name: "conv0/bn/AssignMovingAvg_1/conv0/bn/moving_variance/Pow"
  op: "Pow"
  input: "conv0/bn/AssignMovingAvg_1/conv0/bn/moving_variance/sub_1"
  input: "conv0/bn/AssignMovingAvg_1/conv0/bn/moving_variance/read_1"
  attr {
    key: "T"
    value {
      type: DT_FLOAT
    }
  }
  attr {
    key: "_class"
    value {
      list {
        s: "loc:@conv0/bn/moving_variance"
      }
    }
  }
}
node {
  name: "conv0/bn/AssignMovingAvg_1/conv0/bn/moving_variance/sub_2/x"
  op: "Const"
  input: "^conv0/bn/AssignMovingAvg_1/conv0/bn/moving_variance/AssignAdd"
  input: "^conv0/bn/AssignMovingAvg_1/conv0/bn/moving_variance/conv0/bn/moving_variance"
  attr {
    key: "_class"
    value {
      list {
        s: "loc:@conv0/bn/moving_variance"
      }
    }
  }
  attr {
    key: "dtype"
    value {
      type: DT_FLOAT
    }
  }
  attr {
    key: "value"
    value {
      tensor {
        dtype: DT_FLOAT
        tensor_shape {
        }
        float_val: 1.0
      }
    }
  }
}
node {
  name: "conv0/bn/AssignMovingAvg_1/conv0/bn/moving_variance/sub_2"
  op: "Sub"
  input: "conv0/bn/AssignMovingAvg_1/conv0/bn/moving_variance/sub_2/x"
  input: "conv0/bn/AssignMovingAvg_1/conv0/bn/moving_variance/Pow"
  attr {
    key: "T"
    value {
      type: DT_FLOAT
    }
  }
  attr {
    key: "_class"
    value {
      list {
        s: "loc:@conv0/bn/moving_variance"
      }
    }
  }
}
node {
  name: "conv0/bn/AssignMovingAvg_1/conv0/bn/moving_variance/truediv"
  op: "RealDiv"
  input: "conv0/bn/AssignMovingAvg_1/conv0/bn/moving_variance/read"
  input: "conv0/bn/AssignMovingAvg_1/conv0/bn/moving_variance/sub_2"
  attr {
    key: "T"
    value {
      type: DT_FLOAT
    }
  }
  attr {
    key: "_class"
    value {
      list {
        s: "loc:@conv0/bn/moving_variance"
      }
    }
  }
}
node {
  name: "conv0/bn/AssignMovingAvg_1/conv0/bn/moving_variance/sub_3"
  op: "Sub"
  input: "conv0/bn/moving_variance/read"
  input: "conv0/bn/AssignMovingAvg_1/conv0/bn/moving_variance/truediv"
  attr {
    key: "T"
    value {
      type: DT_FLOAT
    }
  }
  attr {
    key: "_class"
    value {
      list {
        s: "loc:@conv0/bn/moving_variance"
      }
    }
  }
}
node {
  name: "conv0/bn/AssignMovingAvg_1"
  op: "AssignSub"
  input: "conv0/bn/moving_variance"
  input: "conv0/bn/AssignMovingAvg_1/conv0/bn/moving_variance/sub_3"
  attr {
    key: "T"
    value {
      type: DT_FLOAT
    }
  }
  attr {
    key: "_class"
    value {
      list {
        s: "loc:@conv0/bn/moving_variance"
      }
    }
  }
  attr {
    key: "use_locking"
    value {
      b: false
    }
  }
}
node {
  name: "conv0/bn/FusedBatchNorm_1"
  op: "FusedBatchNorm"
  input: "conv0/convolution"
  input: "conv0/bn/gamma/read"
  input: "conv0/bn/beta/read"
  input: "conv0/bn/moving_mean/read"
  input: "conv0/bn/moving_variance/read"
  attr {
    key: "T"
    value {
      type: DT_FLOAT
    }
  }
  attr {
    key: "data_format"
    value {
      s: "NHWC"
    }
  }
  attr {
    key: "epsilon"
    value {
      f: 1.0009999641624745e-05
    }
  }
  attr {
    key: "is_training"
    value {
      b: false
    }
  }
}
node {
  name: "activation_1/Relu"
  op: "Relu"
  input: "conv0/bn/FusedBatchNorm_1"
  attr {
    key: "T"
    value {
      type: DT_FLOAT
    }
  }
}
node {
  name: "conv1/dw/random_uniform/shape"
  op: "Const"
  attr {
    key: "dtype"
    value {
      type: DT_INT32
    }
  }
  attr {
    key: "value"
    value {
      tensor {
        dtype: DT_INT32
        tensor_shape {
          dim {
            size: 4
          }
        }
        tensor_content: "\003\000\000\000\003\000\000\000 \000\000\000\001\000\000\000"
      }
    }
  }
}
node {
  name: "conv1/dw/random_uniform/min"
  op: "Const"
  attr {
    key: "dtype"
    value {
      type: DT_FLOAT
    }
  }
  attr {
    key: "value"
    value {
      tensor {
        dtype: DT_FLOAT
        tensor_shape {
        }
        float_val: -0.14213381707668304
      }
    }
  }
}
node {
  name: "conv1/dw/random_uniform/max"
  op: "Const"
  attr {
    key: "dtype"
    value {
      type: DT_FLOAT
    }
  }
  attr {
    key: "value"
    value {
      tensor {
        dtype: DT_FLOAT
        tensor_shape {
        }
        float_val: 0.14213381707668304
      }
    }
  }
}
node {
  name: "conv1/dw/random_uniform/RandomUniform"
  op: "RandomUniform"
  input: "conv1/dw/random_uniform/shape"
  attr {
    key: "T"
    value {
      type: DT_INT32
    }
  }
  attr {
    key: "dtype"
    value {
      type: DT_FLOAT
    }
  }
  attr {
    key: "seed"
    value {
      i: 87654321
    }
  }
  attr {
    key: "seed2"
    value {
      i: 8394788
    }
  }
}
node {
  name: "conv1/dw/random_uniform/sub"
  op: "Sub"
  input: "conv1/dw/random_uniform/max"
  input: "conv1/dw/random_uniform/min"
  attr {
    key: "T"
    value {
      type: DT_FLOAT
    }
  }
}
node {
  name: "conv1/dw/random_uniform/mul"
  op: "Mul"
  input: "conv1/dw/random_uniform/RandomUniform"
  input: "conv1/dw/random_uniform/sub"
  attr {
    key: "T"
    value {
      type: DT_FLOAT
    }
  }
}
node {
  name: "conv1/dw/random_uniform"
  op: "Add"
  input: "conv1/dw/random_uniform/mul"
  input: "conv1/dw/random_uniform/min"
  attr {
    key: "T"
    value {
      type: DT_FLOAT
    }
  }
}
node {
  name: "conv1/dw/depthwise_kernel"
  op: "VariableV2"
  attr {
    key: "container"
    value {
      s: ""
    }
  }
  attr {
    key: "dtype"
    value {
      type: DT_FLOAT
    }
  }
  attr {
    key: "shape"
    value {
      shape {
        dim {
          size: 3
        }
        dim {
          size: 3
        }
        dim {
          size: 32
        }
        dim {
          size: 1
        }
      }
    }
  }
  attr {
    key: "shared_name"
    value {
      s: ""
    }
  }
}
node {
  name: "conv1/dw/depthwise_kernel/Assign"
  op: "Assign"
  input: "conv1/dw/depthwise_kernel"
  input: "conv1/dw/random_uniform"
  attr {
    key: "T"
    value {
      type: DT_FLOAT
    }
  }
  attr {
    key: "_class"
    value {
      list {
        s: "loc:@conv1/dw/depthwise_kernel"
      }
    }
  }
  attr {
    key: "use_locking"
    value {
      b: true
    }
  }
  attr {
    key: "validate_shape"
    value {
      b: true
    }
  }
}
node {
  name: "conv1/dw/depthwise_kernel/read"
  op: "Identity"
  input: "conv1/dw/depthwise_kernel"
  attr {
    key: "T"
    value {
      type: DT_FLOAT
    }
  }
  attr {
    key: "_class"
    value {
      list {
        s: "loc:@conv1/dw/depthwise_kernel"
      }
    }
  }
}
node {
  name: "conv1/dw/depthwise/Shape"
  op: "Const"
  attr {
    key: "dtype"
    value {
      type: DT_INT32
    }
  }
  attr {
    key: "value"
    value {
      tensor {
        dtype: DT_INT32
        tensor_shape {
          dim {
            size: 4
          }
        }
        tensor_content: "\003\000\000\000\003\000\000\000 \000\000\000\001\000\000\000"
      }
    }
  }
}
node {
  name: "conv1/dw/depthwise/dilation_rate"
  op: "Const"
  attr {
    key: "dtype"
    value {
      type: DT_INT32
    }
  }
  attr {
    key: "value"
    value {
      tensor {
        dtype: DT_INT32
        tensor_shape {
          dim {
            size: 2
          }
        }
        tensor_content: "\001\000\000\000\001\000\000\000"
      }
    }
  }
}
node {
  name: "conv1/dw/depthwise"
  op: "DepthwiseConv2dNative"
  input: "activation_1/Relu"
  input: "conv1/dw/depthwise_kernel/read"
  attr {
    key: "T"
    value {
      type: DT_FLOAT
    }
  }
  attr {
    key: "data_format"
    value {
      s: "NHWC"
    }
  }
  attr {
    key: "dilations"
    value {
      list {
        i: 1
        i: 1
        i: 1
        i: 1
      }
    }
  }
  attr {
    key: "padding"
    value {
      s: "SAME"
    }
  }
  attr {
    key: "strides"
    value {
      list {
        i: 1
        i: 1
        i: 1
        i: 1
      }
    }
  }
}
node {
  name: "conv1/dw/bn/Const"
  op: "Const"
  attr {
    key: "dtype"
    value {
      type: DT_FLOAT
    }
  }
  attr {
    key: "value"
    value {
      tensor {
        dtype: DT_FLOAT
        tensor_shape {
          dim {
            size: 32
          }
        }
        float_val: 1.0
      }
    }
  }
}
node {
  name: "conv1/dw/bn/gamma"
  op: "VariableV2"
  attr {
    key: "container"
    value {
      s: ""
    }
  }
  attr {
    key: "dtype"
    value {
      type: DT_FLOAT
    }
  }
  attr {
    key: "shape"
    value {
      shape {
        dim {
          size: 32
        }
      }
    }
  }
  attr {
    key: "shared_name"
    value {
      s: ""
    }
  }
}
node {
  name: "conv1/dw/bn/gamma/Assign"
  op: "Assign"
  input: "conv1/dw/bn/gamma"
  input: "conv1/dw/bn/Const"
  attr {
    key: "T"
    value {
      type: DT_FLOAT
    }
  }
  attr {
    key: "_class"
    value {
      list {
        s: "loc:@conv1/dw/bn/gamma"
      }
    }
  }
  attr {
    key: "use_locking"
    value {
      b: true
    }
  }
  attr {
    key: "validate_shape"
    value {
      b: true
    }
  }
}
node {
  name: "conv1/dw/bn/gamma/read"
  op: "Identity"
  input: "conv1/dw/bn/gamma"
  attr {
    key: "T"
    value {
      type: DT_FLOAT
    }
  }
  attr {
    key: "_class"
    value {
      list {
        s: "loc:@conv1/dw/bn/gamma"
      }
    }
  }
}
node {
  name: "conv1/dw/bn/Const_1"
  op: "Const"
  attr {
    key: "dtype"
    value {
      type: DT_FLOAT
    }
  }
  attr {
    key: "value"
    value {
      tensor {
        dtype: DT_FLOAT
        tensor_shape {
          dim {
            size: 32
          }
        }
        float_val: 0.0
      }
    }
  }
}
node {
  name: "conv1/dw/bn/beta"
  op: "VariableV2"
  attr {
    key: "container"
    value {
      s: ""
    }
  }
  attr {
    key: "dtype"
    value {
      type: DT_FLOAT
    }
  }
  attr {
    key: "shape"
    value {
      shape {
        dim {
          size: 32
        }
      }
    }
  }
  attr {
    key: "shared_name"
    value {
      s: ""
    }
  }
}
node {
  name: "conv1/dw/bn/beta/Assign"
  op: "Assign"
  input: "conv1/dw/bn/beta"
  input: "conv1/dw/bn/Const_1"
  attr {
    key: "T"
    value {
      type: DT_FLOAT
    }
  }
  attr {
    key: "_class"
    value {
      list {
        s: "loc:@conv1/dw/bn/beta"
      }
    }
  }
  attr {
    key: "use_locking"
    value {
      b: true
    }
  }
  attr {
    key: "validate_shape"
    value {
      b: true
    }
  }
}
node {
  name: "conv1/dw/bn/beta/read"
  op: "Identity"
  input: "conv1/dw/bn/beta"
  attr {
    key: "T"
    value {
      type: DT_FLOAT
    }
  }
  attr {
    key: "_class"
    value {
      list {
        s: "loc:@conv1/dw/bn/beta"
      }
    }
  }
}
node {
  name: "conv1/dw/bn/Const_2"
  op: "Const"
  attr {
    key: "dtype"
    value {
      type: DT_FLOAT
    }
  }
  attr {
    key: "value"
    value {
      tensor {
        dtype: DT_FLOAT
        tensor_shape {
          dim {
            size: 32
          }
        }
        float_val: 0.0
      }
    }
  }
}
node {
  name: "conv1/dw/bn/moving_mean"
  op: "VariableV2"
  attr {
    key: "container"
    value {
      s: ""
    }
  }
  attr {
    key: "dtype"
    value {
      type: DT_FLOAT
    }
  }
  attr {
    key: "shape"
    value {
      shape {
        dim {
          size: 32
        }
      }
    }
  }
  attr {
    key: "shared_name"
    value {
      s: ""
    }
  }
}
node {
  name: "conv1/dw/bn/moving_mean/Assign"
  op: "Assign"
  input: "conv1/dw/bn/moving_mean"
  input: "conv1/dw/bn/Const_2"
  attr {
    key: "T"
    value {
      type: DT_FLOAT
    }
  }
  attr {
    key: "_class"
    value {
      list {
        s: "loc:@conv1/dw/bn/moving_mean"
      }
    }
  }
  attr {
    key: "use_locking"
    value {
      b: true
    }
  }
  attr {
    key: "validate_shape"
    value {
      b: true
    }
  }
}
node {
  name: "conv1/dw/bn/moving_mean/read"
  op: "Identity"
  input: "conv1/dw/bn/moving_mean"
  attr {
    key: "T"
    value {
      type: DT_FLOAT
    }
  }
  attr {
    key: "_class"
    value {
      list {
        s: "loc:@conv1/dw/bn/moving_mean"
      }
    }
  }
}
node {
  name: "conv1/dw/bn/Const_3"
  op: "Const"
  attr {
    key: "dtype"
    value {
      type: DT_FLOAT
    }
  }
  attr {
    key: "value"
    value {
      tensor {
        dtype: DT_FLOAT
        tensor_shape {
          dim {
            size: 32
          }
        }
        float_val: 1.0
      }
    }
  }
}
node {
  name: "conv1/dw/bn/moving_variance"
  op: "VariableV2"
  attr {
    key: "container"
    value {
      s: ""
    }
  }
  attr {
    key: "dtype"
    value {
      type: DT_FLOAT
    }
  }
  attr {
    key: "shape"
    value {
      shape {
        dim {
          size: 32
        }
      }
    }
  }
  attr {
    key: "shared_name"
    value {
      s: ""
    }
  }
}
node {
  name: "conv1/dw/bn/moving_variance/Assign"
  op: "Assign"
  input: "conv1/dw/bn/moving_variance"
  input: "conv1/dw/bn/Const_3"
  attr {
    key: "T"
    value {
      type: DT_FLOAT
    }
  }
  attr {
    key: "_class"
    value {
      list {
        s: "loc:@conv1/dw/bn/moving_variance"
      }
    }
  }
  attr {
    key: "use_locking"
    value {
      b: true
    }
  }
  attr {
    key: "validate_shape"
    value {
      b: true
    }
  }
}
node {
  name: "conv1/dw/bn/moving_variance/read"
  op: "Identity"
  input: "conv1/dw/bn/moving_variance"
  attr {
    key: "T"
    value {
      type: DT_FLOAT
    }
  }
  attr {
    key: "_class"
    value {
      list {
        s: "loc:@conv1/dw/bn/moving_variance"
      }
    }
  }
}
node {
  name: "conv1/dw/bn/Const_4"
  op: "Const"
  attr {
    key: "dtype"
    value {
      type: DT_FLOAT
    }
  }
  attr {
    key: "value"
    value {
      tensor {
        dtype: DT_FLOAT
        tensor_shape {
          dim {
          }
        }
      }
    }
  }
}
node {
  name: "conv1/dw/bn/Const_5"
  op: "Const"
  attr {
    key: "dtype"
    value {
      type: DT_FLOAT
    }
  }
  attr {
    key: "value"
    value {
      tensor {
        dtype: DT_FLOAT
        tensor_shape {
          dim {
          }
        }
      }
    }
  }
}
node {
  name: "conv1/dw/bn/FusedBatchNorm"
  op: "FusedBatchNorm"
  input: "conv1/dw/depthwise"
  input: "conv1/dw/bn/gamma/read"
  input: "conv1/dw/bn/beta/read"
  input: "conv1/dw/bn/Const_4"
  input: "conv1/dw/bn/Const_5"
  attr {
    key: "T"
    value {
      type: DT_FLOAT
    }
  }
  attr {
    key: "data_format"
    value {
      s: "NHWC"
    }
  }
  attr {
    key: "epsilon"
    value {
      f: 1.0009999641624745e-05
    }
  }
  attr {
    key: "is_training"
    value {
      b: true
    }
  }
}
node {
  name: "conv1/dw/bn/Shape"
  op: "Shape"
  input: "conv1/dw/depthwise"
  attr {
    key: "T"
    value {
      type: DT_FLOAT
    }
  }
  attr {
    key: "out_type"
    value {
      type: DT_INT32
    }
  }
}
node {
  name: "conv1/dw/bn/strided_slice/stack"
  op: "Const"
  attr {
    key: "dtype"
    value {
      type: DT_INT32
    }
  }
  attr {
    key: "value"
    value {
      tensor {
        dtype: DT_INT32
        tensor_shape {
          dim {
            size: 1
          }
        }
        int_val: 0
      }
    }
  }
}
node {
  name: "conv1/dw/bn/strided_slice/stack_1"
  op: "Const"
  attr {
    key: "dtype"
    value {
      type: DT_INT32
    }
  }
  attr {
    key: "value"
    value {
      tensor {
        dtype: DT_INT32
        tensor_shape {
          dim {
            size: 1
          }
        }
        int_val: 1
      }
    }
  }
}
node {
  name: "conv1/dw/bn/strided_slice/stack_2"
  op: "Const"
  attr {
    key: "dtype"
    value {
      type: DT_INT32
    }
  }
  attr {
    key: "value"
    value {
      tensor {
        dtype: DT_INT32
        tensor_shape {
          dim {
            size: 1
          }
        }
        int_val: 1
      }
    }
  }
}
node {
  name: "conv1/dw/bn/strided_slice"
  op: "StridedSlice"
  input: "conv1/dw/bn/Shape"
  input: "conv1/dw/bn/strided_slice/stack"
  input: "conv1/dw/bn/strided_slice/stack_1"
  input: "conv1/dw/bn/strided_slice/stack_2"
  attr {
    key: "Index"
    value {
      type: DT_INT32
    }
  }
  attr {
    key: "T"
    value {
      type: DT_INT32
    }
  }
  attr {
    key: "begin_mask"
    value {
      i: 0
    }
  }
  attr {
    key: "ellipsis_mask"
    value {
      i: 0
    }
  }
  attr {
    key: "end_mask"
    value {
      i: 0
    }
  }
  attr {
    key: "new_axis_mask"
    value {
      i: 0
    }
  }
  attr {
    key: "shrink_axis_mask"
    value {
      i: 1
    }
  }
}
node {
  name: "conv1/dw/bn/Shape_1"
  op: "Shape"
  input: "conv1/dw/depthwise"
  attr {
    key: "T"
    value {
      type: DT_FLOAT
    }
  }
  attr {
    key: "out_type"
    value {
      type: DT_INT32
    }
  }
}
node {
  name: "conv1/dw/bn/strided_slice_1/stack"
  op: "Const"
  attr {
    key: "dtype"
    value {
      type: DT_INT32
    }
  }
  attr {
    key: "value"
    value {
      tensor {
        dtype: DT_INT32
        tensor_shape {
          dim {
            size: 1
          }
        }
        int_val: 1
      }
    }
  }
}
node {
  name: "conv1/dw/bn/strided_slice_1/stack_1"
  op: "Const"
  attr {
    key: "dtype"
    value {
      type: DT_INT32
    }
  }
  attr {
    key: "value"
    value {
      tensor {
        dtype: DT_INT32
        tensor_shape {
          dim {
            size: 1
          }
        }
        int_val: 2
      }
    }
  }
}
node {
  name: "conv1/dw/bn/strided_slice_1/stack_2"
  op: "Const"
  attr {
    key: "dtype"
    value {
      type: DT_INT32
    }
  }
  attr {
    key: "value"
    value {
      tensor {
        dtype: DT_INT32
        tensor_shape {
          dim {
            size: 1
          }
        }
        int_val: 1
      }
    }
  }
}
node {
  name: "conv1/dw/bn/strided_slice_1"
  op: "StridedSlice"
  input: "conv1/dw/bn/Shape_1"
  input: "conv1/dw/bn/strided_slice_1/stack"
  input: "conv1/dw/bn/strided_slice_1/stack_1"
  input: "conv1/dw/bn/strided_slice_1/stack_2"
  attr {
    key: "Index"
    value {
      type: DT_INT32
    }
  }
  attr {
    key: "T"
    value {
      type: DT_INT32
    }
  }
  attr {
    key: "begin_mask"
    value {
      i: 0
    }
  }
  attr {
    key: "ellipsis_mask"
    value {
      i: 0
    }
  }
  attr {
    key: "end_mask"
    value {
      i: 0
    }
  }
  attr {
    key: "new_axis_mask"
    value {
      i: 0
    }
  }
  attr {
    key: "shrink_axis_mask"
    value {
      i: 1
    }
  }
}
node {
  name: "conv1/dw/bn/Shape_2"
  op: "Shape"
  input: "conv1/dw/depthwise"
  attr {
    key: "T"
    value {
      type: DT_FLOAT
    }
  }
  attr {
    key: "out_type"
    value {
      type: DT_INT32
    }
  }
}
node {
  name: "conv1/dw/bn/strided_slice_2/stack"
  op: "Const"
  attr {
    key: "dtype"
    value {
      type: DT_INT32
    }
  }
  attr {
    key: "value"
    value {
      tensor {
        dtype: DT_INT32
        tensor_shape {
          dim {
            size: 1
          }
        }
        int_val: 2
      }
    }
  }
}
node {
  name: "conv1/dw/bn/strided_slice_2/stack_1"
  op: "Const"
  attr {
    key: "dtype"
    value {
      type: DT_INT32
    }
  }
  attr {
    key: "value"
    value {
      tensor {
        dtype: DT_INT32
        tensor_shape {
          dim {
            size: 1
          }
        }
        int_val: 3
      }
    }
  }
}
node {
  name: "conv1/dw/bn/strided_slice_2/stack_2"
  op: "Const"
  attr {
    key: "dtype"
    value {
      type: DT_INT32
    }
  }
  attr {
    key: "value"
    value {
      tensor {
        dtype: DT_INT32
        tensor_shape {
          dim {
            size: 1
          }
        }
        int_val: 1
      }
    }
  }
}
node {
  name: "conv1/dw/bn/strided_slice_2"
  op: "StridedSlice"
  input: "conv1/dw/bn/Shape_2"
  input: "conv1/dw/bn/strided_slice_2/stack"
  input: "conv1/dw/bn/strided_slice_2/stack_1"
  input: "conv1/dw/bn/strided_slice_2/stack_2"
  attr {
    key: "Index"
    value {
      type: DT_INT32
    }
  }
  attr {
    key: "T"
    value {
      type: DT_INT32
    }
  }
  attr {
    key: "begin_mask"
    value {
      i: 0
    }
  }
  attr {
    key: "ellipsis_mask"
    value {
      i: 0
    }
  }
  attr {
    key: "end_mask"
    value {
      i: 0
    }
  }
  attr {
    key: "new_axis_mask"
    value {
      i: 0
    }
  }
  attr {
    key: "shrink_axis_mask"
    value {
      i: 1
    }
  }
}
node {
  name: "conv1/dw/bn/Rank/packed"
  op: "Pack"
  input: "conv1/dw/bn/strided_slice"
  input: "conv1/dw/bn/strided_slice_1"
  input: "conv1/dw/bn/strided_slice_2"
  attr {
    key: "N"
    value {
      i: 3
    }
  }
  attr {
    key: "T"
    value {
      type: DT_INT32
    }
  }
  attr {
    key: "axis"
    value {
      i: 0
    }
  }
}
node {
  name: "conv1/dw/bn/Rank"
  op: "Const"
  attr {
    key: "dtype"
    value {
      type: DT_INT32
    }
  }
  attr {
    key: "value"
    value {
      tensor {
        dtype: DT_INT32
        tensor_shape {
        }
        int_val: 1
      }
    }
  }
}
node {
  name: "conv1/dw/bn/range/start"
  op: "Const"
  attr {
    key: "dtype"
    value {
      type: DT_INT32
    }
  }
  attr {
    key: "value"
    value {
      tensor {
        dtype: DT_INT32
        tensor_shape {
        }
        int_val: 0
      }
    }
  }
}
node {
  name: "conv1/dw/bn/range/delta"
  op: "Const"
  attr {
    key: "dtype"
    value {
      type: DT_INT32
    }
  }
  attr {
    key: "value"
    value {
      tensor {
        dtype: DT_INT32
        tensor_shape {
        }
        int_val: 1
      }
    }
  }
}
node {
  name: "conv1/dw/bn/range"
  op: "Range"
  input: "conv1/dw/bn/range/start"
  input: "conv1/dw/bn/Rank"
  input: "conv1/dw/bn/range/delta"
  attr {
    key: "Tidx"
    value {
      type: DT_INT32
    }
  }
}
node {
  name: "conv1/dw/bn/Prod/input"
  op: "Pack"
  input: "conv1/dw/bn/strided_slice"
  input: "conv1/dw/bn/strided_slice_1"
  input: "conv1/dw/bn/strided_slice_2"
  attr {
    key: "N"
    value {
      i: 3
    }
  }
  attr {
    key: "T"
    value {
      type: DT_INT32
    }
  }
  attr {
    key: "axis"
    value {
      i: 0
    }
  }
}
node {
  name: "conv1/dw/bn/Prod"
  op: "Prod"
  input: "conv1/dw/bn/Prod/input"
  input: "conv1/dw/bn/range"
  attr {
    key: "T"
    value {
      type: DT_INT32
    }
  }
  attr {
    key: "Tidx"
    value {
      type: DT_INT32
    }
  }
  attr {
    key: "keep_dims"
    value {
      b: false
    }
  }
}
node {
  name: "conv1/dw/bn/Cast"
  op: "Cast"
  input: "conv1/dw/bn/Prod"
  attr {
    key: "DstT"
    value {
      type: DT_FLOAT
    }
  }
  attr {
    key: "SrcT"
    value {
      type: DT_INT32
    }
  }
}
node {
  name: "conv1/dw/bn/sub/y"
  op: "Const"
  attr {
    key: "dtype"
    value {
      type: DT_FLOAT
    }
  }
  attr {
    key: "value"
    value {
      tensor {
        dtype: DT_FLOAT
        tensor_shape {
        }
        float_val: 1.0000100135803223
      }
    }
  }
}
node {
  name: "conv1/dw/bn/sub"
  op: "Sub"
  input: "conv1/dw/bn/Cast"
  input: "conv1/dw/bn/sub/y"
  attr {
    key: "T"
    value {
      type: DT_FLOAT
    }
  }
}
node {
  name: "conv1/dw/bn/truediv"
  op: "RealDiv"
  input: "conv1/dw/bn/Cast"
  input: "conv1/dw/bn/sub"
  attr {
    key: "T"
    value {
      type: DT_FLOAT
    }
  }
}
node {
  name: "conv1/dw/bn/mul"
  op: "Mul"
  input: "conv1/dw/bn/FusedBatchNorm:2"
  input: "conv1/dw/bn/truediv"
  attr {
    key: "T"
    value {
      type: DT_FLOAT
    }
  }
}
node {
  name: "conv1/dw/bn/AssignMovingAvg/decay"
  op: "Const"
  attr {
    key: "_class"
    value {
      list {
        s: "loc:@conv1/dw/bn/moving_mean"
      }
    }
  }
  attr {
    key: "dtype"
    value {
      type: DT_FLOAT
    }
  }
  attr {
    key: "value"
    value {
      tensor {
        dtype: DT_FLOAT
        tensor_shape {
        }
        float_val: 0.009999999776482582
      }
    }
  }
}
node {
  name: "conv1/dw/bn/AssignMovingAvg/conv1/dw/bn/moving_mean/zeros"
  op: "Const"
  attr {
    key: "_class"
    value {
      list {
        s: "loc:@conv1/dw/bn/moving_mean"
      }
    }
  }
  attr {
    key: "dtype"
    value {
      type: DT_FLOAT
    }
  }
  attr {
    key: "value"
    value {
      tensor {
        dtype: DT_FLOAT
        tensor_shape {
          dim {
            size: 32
          }
        }
        float_val: 0.0
      }
    }
  }
}
node {
  name: "conv1/dw/bn/moving_mean/biased"
  op: "VariableV2"
  attr {
    key: "_class"
    value {
      list {
        s: "loc:@conv1/dw/bn/moving_mean"
      }
    }
  }
  attr {
    key: "container"
    value {
      s: ""
    }
  }
  attr {
    key: "dtype"
    value {
      type: DT_FLOAT
    }
  }
  attr {
    key: "shape"
    value {
      shape {
        dim {
          size: 32
        }
      }
    }
  }
  attr {
    key: "shared_name"
    value {
      s: ""
    }
  }
}
node {
  name: "conv1/dw/bn/moving_mean/biased/Assign"
  op: "Assign"
  input: "conv1/dw/bn/moving_mean/biased"
  input: "conv1/dw/bn/AssignMovingAvg/conv1/dw/bn/moving_mean/zeros"
  attr {
    key: "T"
    value {
      type: DT_FLOAT
    }
  }
  attr {
    key: "_class"
    value {
      list {
        s: "loc:@conv1/dw/bn/moving_mean"
      }
    }
  }
  attr {
    key: "use_locking"
    value {
      b: true
    }
  }
  attr {
    key: "validate_shape"
    value {
      b: true
    }
  }
}
node {
  name: "conv1/dw/bn/moving_mean/biased/read"
  op: "Identity"
  input: "conv1/dw/bn/moving_mean/biased"
  attr {
    key: "T"
    value {
      type: DT_FLOAT
    }
  }
  attr {
    key: "_class"
    value {
      list {
        s: "loc:@conv1/dw/bn/moving_mean"
      }
    }
  }
}
node {
  name: "conv1/dw/bn/moving_mean/local_step/Initializer/zeros"
  op: "Const"
  attr {
    key: "_class"
    value {
      list {
        s: "loc:@conv1/dw/bn/moving_mean"
      }
    }
  }
  attr {
    key: "dtype"
    value {
      type: DT_FLOAT
    }
  }
  attr {
    key: "value"
    value {
      tensor {
        dtype: DT_FLOAT
        tensor_shape {
        }
        float_val: 0.0
      }
    }
  }
}
node {
  name: "conv1/dw/bn/moving_mean/local_step"
  op: "VariableV2"
  attr {
    key: "_class"
    value {
      list {
        s: "loc:@conv1/dw/bn/moving_mean"
      }
    }
  }
  attr {
    key: "container"
    value {
      s: ""
    }
  }
  attr {
    key: "dtype"
    value {
      type: DT_FLOAT
    }
  }
  attr {
    key: "shape"
    value {
      shape {
      }
    }
  }
  attr {
    key: "shared_name"
    value {
      s: ""
    }
  }
}
node {
  name: "conv1/dw/bn/moving_mean/local_step/Assign"
  op: "Assign"
  input: "conv1/dw/bn/moving_mean/local_step"
  input: "conv1/dw/bn/moving_mean/local_step/Initializer/zeros"
  attr {
    key: "T"
    value {
      type: DT_FLOAT
    }
  }
  attr {
    key: "_class"
    value {
      list {
        s: "loc:@conv1/dw/bn/moving_mean"
      }
    }
  }
  attr {
    key: "use_locking"
    value {
      b: true
    }
  }
  attr {
    key: "validate_shape"
    value {
      b: true
    }
  }
}
node {
  name: "conv1/dw/bn/moving_mean/local_step/read"
  op: "Identity"
  input: "conv1/dw/bn/moving_mean/local_step"
  attr {
    key: "T"
    value {
      type: DT_FLOAT
    }
  }
  attr {
    key: "_class"
    value {
      list {
        s: "loc:@conv1/dw/bn/moving_mean"
      }
    }
  }
}
node {
  name: "conv1/dw/bn/AssignMovingAvg/conv1/dw/bn/moving_mean/sub"
  op: "Sub"
  input: "conv1/dw/bn/moving_mean/biased/read"
  input: "conv1/dw/bn/FusedBatchNorm:1"
  attr {
    key: "T"
    value {
      type: DT_FLOAT
    }
  }
  attr {
    key: "_class"
    value {
      list {
        s: "loc:@conv1/dw/bn/moving_mean"
      }
    }
  }
}
node {
  name: "conv1/dw/bn/AssignMovingAvg/conv1/dw/bn/moving_mean/mul"
  op: "Mul"
  input: "conv1/dw/bn/AssignMovingAvg/conv1/dw/bn/moving_mean/sub"
  input: "conv1/dw/bn/AssignMovingAvg/decay"
  attr {
    key: "T"
    value {
      type: DT_FLOAT
    }
  }
  attr {
    key: "_class"
    value {
      list {
        s: "loc:@conv1/dw/bn/moving_mean"
      }
    }
  }
}
node {
  name: "conv1/dw/bn/AssignMovingAvg/conv1/dw/bn/moving_mean/conv1/dw/bn/moving_mean"
  op: "AssignSub"
  input: "conv1/dw/bn/moving_mean/biased"
  input: "conv1/dw/bn/AssignMovingAvg/conv1/dw/bn/moving_mean/mul"
  attr {
    key: "T"
    value {
      type: DT_FLOAT
    }
  }
  attr {
    key: "_class"
    value {
      list {
        s: "loc:@conv1/dw/bn/moving_mean"
      }
    }
  }
  attr {
    key: "use_locking"
    value {
      b: false
    }
  }
}
node {
  name: "conv1/dw/bn/AssignMovingAvg/conv1/dw/bn/moving_mean/AssignAdd/value"
  op: "Const"
  attr {
    key: "_class"
    value {
      list {
        s: "loc:@conv1/dw/bn/moving_mean"
      }
    }
  }
  attr {
    key: "dtype"
    value {
      type: DT_FLOAT
    }
  }
  attr {
    key: "value"
    value {
      tensor {
        dtype: DT_FLOAT
        tensor_shape {
        }
        float_val: 1.0
      }
    }
  }
}
node {
  name: "conv1/dw/bn/AssignMovingAvg/conv1/dw/bn/moving_mean/AssignAdd"
  op: "AssignAdd"
  input: "conv1/dw/bn/moving_mean/local_step"
  input: "conv1/dw/bn/AssignMovingAvg/conv1/dw/bn/moving_mean/AssignAdd/value"
  attr {
    key: "T"
    value {
      type: DT_FLOAT
    }
  }
  attr {
    key: "_class"
    value {
      list {
        s: "loc:@conv1/dw/bn/moving_mean"
      }
    }
  }
  attr {
    key: "use_locking"
    value {
      b: false
    }
  }
}
node {
  name: "conv1/dw/bn/AssignMovingAvg/conv1/dw/bn/moving_mean/read"
  op: "Identity"
  input: "conv1/dw/bn/moving_mean/biased"
  input: "^conv1/dw/bn/AssignMovingAvg/conv1/dw/bn/moving_mean/AssignAdd"
  input: "^conv1/dw/bn/AssignMovingAvg/conv1/dw/bn/moving_mean/conv1/dw/bn/moving_mean"
  attr {
    key: "T"
    value {
      type: DT_FLOAT
    }
  }
  attr {
    key: "_class"
    value {
      list {
        s: "loc:@conv1/dw/bn/moving_mean"
      }
    }
  }
}
node {
  name: "conv1/dw/bn/AssignMovingAvg/conv1/dw/bn/moving_mean/sub_1/x"
  op: "Const"
  input: "^conv1/dw/bn/AssignMovingAvg/conv1/dw/bn/moving_mean/AssignAdd"
  input: "^conv1/dw/bn/AssignMovingAvg/conv1/dw/bn/moving_mean/conv1/dw/bn/moving_mean"
  attr {
    key: "_class"
    value {
      list {
        s: "loc:@conv1/dw/bn/moving_mean"
      }
    }
  }
  attr {
    key: "dtype"
    value {
      type: DT_FLOAT
    }
  }
  attr {
    key: "value"
    value {
      tensor {
        dtype: DT_FLOAT
        tensor_shape {
        }
        float_val: 1.0
      }
    }
  }
}
node {
  name: "conv1/dw/bn/AssignMovingAvg/conv1/dw/bn/moving_mean/sub_1"
  op: "Sub"
  input: "conv1/dw/bn/AssignMovingAvg/conv1/dw/bn/moving_mean/sub_1/x"
  input: "conv1/dw/bn/AssignMovingAvg/decay"
  attr {
    key: "T"
    value {
      type: DT_FLOAT
    }
  }
  attr {
    key: "_class"
    value {
      list {
        s: "loc:@conv1/dw/bn/moving_mean"
      }
    }
  }
}
node {
  name: "conv1/dw/bn/AssignMovingAvg/conv1/dw/bn/moving_mean/read_1"
  op: "Identity"
  input: "conv1/dw/bn/moving_mean/local_step"
  input: "^conv1/dw/bn/AssignMovingAvg/conv1/dw/bn/moving_mean/AssignAdd"
  input: "^conv1/dw/bn/AssignMovingAvg/conv1/dw/bn/moving_mean/conv1/dw/bn/moving_mean"
  attr {
    key: "T"
    value {
      type: DT_FLOAT
    }
  }
  attr {
    key: "_class"
    value {
      list {
        s: "loc:@conv1/dw/bn/moving_mean"
      }
    }
  }
}
node {
  name: "conv1/dw/bn/AssignMovingAvg/conv1/dw/bn/moving_mean/Pow"
  op: "Pow"
  input: "conv1/dw/bn/AssignMovingAvg/conv1/dw/bn/moving_mean/sub_1"
  input: "conv1/dw/bn/AssignMovingAvg/conv1/dw/bn/moving_mean/read_1"
  attr {
    key: "T"
    value {
      type: DT_FLOAT
    }
  }
  attr {
    key: "_class"
    value {
      list {
        s: "loc:@conv1/dw/bn/moving_mean"
      }
    }
  }
}
node {
  name: "conv1/dw/bn/AssignMovingAvg/conv1/dw/bn/moving_mean/sub_2/x"
  op: "Const"
  input: "^conv1/dw/bn/AssignMovingAvg/conv1/dw/bn/moving_mean/AssignAdd"
  input: "^conv1/dw/bn/AssignMovingAvg/conv1/dw/bn/moving_mean/conv1/dw/bn/moving_mean"
  attr {
    key: "_class"
    value {
      list {
        s: "loc:@conv1/dw/bn/moving_mean"
      }
    }
  }
  attr {
    key: "dtype"
    value {
      type: DT_FLOAT
    }
  }
  attr {
    key: "value"
    value {
      tensor {
        dtype: DT_FLOAT
        tensor_shape {
        }
        float_val: 1.0
      }
    }
  }
}
node {
  name: "conv1/dw/bn/AssignMovingAvg/conv1/dw/bn/moving_mean/sub_2"
  op: "Sub"
  input: "conv1/dw/bn/AssignMovingAvg/conv1/dw/bn/moving_mean/sub_2/x"
  input: "conv1/dw/bn/AssignMovingAvg/conv1/dw/bn/moving_mean/Pow"
  attr {
    key: "T"
    value {
      type: DT_FLOAT
    }
  }
  attr {
    key: "_class"
    value {
      list {
        s: "loc:@conv1/dw/bn/moving_mean"
      }
    }
  }
}
node {
  name: "conv1/dw/bn/AssignMovingAvg/conv1/dw/bn/moving_mean/truediv"
  op: "RealDiv"
  input: "conv1/dw/bn/AssignMovingAvg/conv1/dw/bn/moving_mean/read"
  input: "conv1/dw/bn/AssignMovingAvg/conv1/dw/bn/moving_mean/sub_2"
  attr {
    key: "T"
    value {
      type: DT_FLOAT
    }
  }
  attr {
    key: "_class"
    value {
      list {
        s: "loc:@conv1/dw/bn/moving_mean"
      }
    }
  }
}
node {
  name: "conv1/dw/bn/AssignMovingAvg/conv1/dw/bn/moving_mean/sub_3"
  op: "Sub"
  input: "conv1/dw/bn/moving_mean/read"
  input: "conv1/dw/bn/AssignMovingAvg/conv1/dw/bn/moving_mean/truediv"
  attr {
    key: "T"
    value {
      type: DT_FLOAT
    }
  }
  attr {
    key: "_class"
    value {
      list {
        s: "loc:@conv1/dw/bn/moving_mean"
      }
    }
  }
}
node {
  name: "conv1/dw/bn/AssignMovingAvg"
  op: "AssignSub"
  input: "conv1/dw/bn/moving_mean"
  input: "conv1/dw/bn/AssignMovingAvg/conv1/dw/bn/moving_mean/sub_3"
  attr {
    key: "T"
    value {
      type: DT_FLOAT
    }
  }
  attr {
    key: "_class"
    value {
      list {
        s: "loc:@conv1/dw/bn/moving_mean"
      }
    }
  }
  attr {
    key: "use_locking"
    value {
      b: false
    }
  }
}
node {
  name: "conv1/dw/bn/AssignMovingAvg_1/decay"
  op: "Const"
  attr {
    key: "_class"
    value {
      list {
        s: "loc:@conv1/dw/bn/moving_variance"
      }
    }
  }
  attr {
    key: "dtype"
    value {
      type: DT_FLOAT
    }
  }
  attr {
    key: "value"
    value {
      tensor {
        dtype: DT_FLOAT
        tensor_shape {
        }
        float_val: 0.009999999776482582
      }
    }
  }
}
node {
  name: "conv1/dw/bn/AssignMovingAvg_1/conv1/dw/bn/moving_variance/zeros"
  op: "Const"
  attr {
    key: "_class"
    value {
      list {
        s: "loc:@conv1/dw/bn/moving_variance"
      }
    }
  }
  attr {
    key: "dtype"
    value {
      type: DT_FLOAT
    }
  }
  attr {
    key: "value"
    value {
      tensor {
        dtype: DT_FLOAT
        tensor_shape {
          dim {
            size: 32
          }
        }
        float_val: 0.0
      }
    }
  }
}
node {
  name: "conv1/dw/bn/moving_variance/biased"
  op: "VariableV2"
  attr {
    key: "_class"
    value {
      list {
        s: "loc:@conv1/dw/bn/moving_variance"
      }
    }
  }
  attr {
    key: "container"
    value {
      s: ""
    }
  }
  attr {
    key: "dtype"
    value {
      type: DT_FLOAT
    }
  }
  attr {
    key: "shape"
    value {
      shape {
        dim {
          size: 32
        }
      }
    }
  }
  attr {
    key: "shared_name"
    value {
      s: ""
    }
  }
}
node {
  name: "conv1/dw/bn/moving_variance/biased/Assign"
  op: "Assign"
  input: "conv1/dw/bn/moving_variance/biased"
  input: "conv1/dw/bn/AssignMovingAvg_1/conv1/dw/bn/moving_variance/zeros"
  attr {
    key: "T"
    value {
      type: DT_FLOAT
    }
  }
  attr {
    key: "_class"
    value {
      list {
        s: "loc:@conv1/dw/bn/moving_variance"
      }
    }
  }
  attr {
    key: "use_locking"
    value {
      b: true
    }
  }
  attr {
    key: "validate_shape"
    value {
      b: true
    }
  }
}
node {
  name: "conv1/dw/bn/moving_variance/biased/read"
  op: "Identity"
  input: "conv1/dw/bn/moving_variance/biased"
  attr {
    key: "T"
    value {
      type: DT_FLOAT
    }
  }
  attr {
    key: "_class"
    value {
      list {
        s: "loc:@conv1/dw/bn/moving_variance"
      }
    }
  }
}
node {
  name: "conv1/dw/bn/moving_variance/local_step/Initializer/zeros"
  op: "Const"
  attr {
    key: "_class"
    value {
      list {
        s: "loc:@conv1/dw/bn/moving_variance"
      }
    }
  }
  attr {
    key: "dtype"
    value {
      type: DT_FLOAT
    }
  }
  attr {
    key: "value"
    value {
      tensor {
        dtype: DT_FLOAT
        tensor_shape {
        }
        float_val: 0.0
      }
    }
  }
}
node {
  name: "conv1/dw/bn/moving_variance/local_step"
  op: "VariableV2"
  attr {
    key: "_class"
    value {
      list {
        s: "loc:@conv1/dw/bn/moving_variance"
      }
    }
  }
  attr {
    key: "container"
    value {
      s: ""
    }
  }
  attr {
    key: "dtype"
    value {
      type: DT_FLOAT
    }
  }
  attr {
    key: "shape"
    value {
      shape {
      }
    }
  }
  attr {
    key: "shared_name"
    value {
      s: ""
    }
  }
}
node {
  name: "conv1/dw/bn/moving_variance/local_step/Assign"
  op: "Assign"
  input: "conv1/dw/bn/moving_variance/local_step"
  input: "conv1/dw/bn/moving_variance/local_step/Initializer/zeros"
  attr {
    key: "T"
    value {
      type: DT_FLOAT
    }
  }
  attr {
    key: "_class"
    value {
      list {
        s: "loc:@conv1/dw/bn/moving_variance"
      }
    }
  }
  attr {
    key: "use_locking"
    value {
      b: true
    }
  }
  attr {
    key: "validate_shape"
    value {
      b: true
    }
  }
}
node {
  name: "conv1/dw/bn/moving_variance/local_step/read"
  op: "Identity"
  input: "conv1/dw/bn/moving_variance/local_step"
  attr {
    key: "T"
    value {
      type: DT_FLOAT
    }
  }
  attr {
    key: "_class"
    value {
      list {
        s: "loc:@conv1/dw/bn/moving_variance"
      }
    }
  }
}
node {
  name: "conv1/dw/bn/AssignMovingAvg_1/conv1/dw/bn/moving_variance/sub"
  op: "Sub"
  input: "conv1/dw/bn/moving_variance/biased/read"
  input: "conv1/dw/bn/mul"
  attr {
    key: "T"
    value {
      type: DT_FLOAT
    }
  }
  attr {
    key: "_class"
    value {
      list {
        s: "loc:@conv1/dw/bn/moving_variance"
      }
    }
  }
}
node {
  name: "conv1/dw/bn/AssignMovingAvg_1/conv1/dw/bn/moving_variance/mul"
  op: "Mul"
  input: "conv1/dw/bn/AssignMovingAvg_1/conv1/dw/bn/moving_variance/sub"
  input: "conv1/dw/bn/AssignMovingAvg_1/decay"
  attr {
    key: "T"
    value {
      type: DT_FLOAT
    }
  }
  attr {
    key: "_class"
    value {
      list {
        s: "loc:@conv1/dw/bn/moving_variance"
      }
    }
  }
}
node {
  name: "conv1/dw/bn/AssignMovingAvg_1/conv1/dw/bn/moving_variance/conv1/dw/bn/moving_variance"
  op: "AssignSub"
  input: "conv1/dw/bn/moving_variance/biased"
  input: "conv1/dw/bn/AssignMovingAvg_1/conv1/dw/bn/moving_variance/mul"
  attr {
    key: "T"
    value {
      type: DT_FLOAT
    }
  }
  attr {
    key: "_class"
    value {
      list {
        s: "loc:@conv1/dw/bn/moving_variance"
      }
    }
  }
  attr {
    key: "use_locking"
    value {
      b: false
    }
  }
}
node {
  name: "conv1/dw/bn/AssignMovingAvg_1/conv1/dw/bn/moving_variance/AssignAdd/value"
  op: "Const"
  attr {
    key: "_class"
    value {
      list {
        s: "loc:@conv1/dw/bn/moving_variance"
      }
    }
  }
  attr {
    key: "dtype"
    value {
      type: DT_FLOAT
    }
  }
  attr {
    key: "value"
    value {
      tensor {
        dtype: DT_FLOAT
        tensor_shape {
        }
        float_val: 1.0
      }
    }
  }
}
node {
  name: "conv1/dw/bn/AssignMovingAvg_1/conv1/dw/bn/moving_variance/AssignAdd"
  op: "AssignAdd"
  input: "conv1/dw/bn/moving_variance/local_step"
  input: "conv1/dw/bn/AssignMovingAvg_1/conv1/dw/bn/moving_variance/AssignAdd/value"
  attr {
    key: "T"
    value {
      type: DT_FLOAT
    }
  }
  attr {
    key: "_class"
    value {
      list {
        s: "loc:@conv1/dw/bn/moving_variance"
      }
    }
  }
  attr {
    key: "use_locking"
    value {
      b: false
    }
  }
}
node {
  name: "conv1/dw/bn/AssignMovingAvg_1/conv1/dw/bn/moving_variance/read"
  op: "Identity"
  input: "conv1/dw/bn/moving_variance/biased"
  input: "^conv1/dw/bn/AssignMovingAvg_1/conv1/dw/bn/moving_variance/AssignAdd"
  input: "^conv1/dw/bn/AssignMovingAvg_1/conv1/dw/bn/moving_variance/conv1/dw/bn/moving_variance"
  attr {
    key: "T"
    value {
      type: DT_FLOAT
    }
  }
  attr {
    key: "_class"
    value {
      list {
        s: "loc:@conv1/dw/bn/moving_variance"
      }
    }
  }
}
node {
  name: "conv1/dw/bn/AssignMovingAvg_1/conv1/dw/bn/moving_variance/sub_1/x"
  op: "Const"
  input: "^conv1/dw/bn/AssignMovingAvg_1/conv1/dw/bn/moving_variance/AssignAdd"
  input: "^conv1/dw/bn/AssignMovingAvg_1/conv1/dw/bn/moving_variance/conv1/dw/bn/moving_variance"
  attr {
    key: "_class"
    value {
      list {
        s: "loc:@conv1/dw/bn/moving_variance"
      }
    }
  }
  attr {
    key: "dtype"
    value {
      type: DT_FLOAT
    }
  }
  attr {
    key: "value"
    value {
      tensor {
        dtype: DT_FLOAT
        tensor_shape {
        }
        float_val: 1.0
      }
    }
  }
}
node {
  name: "conv1/dw/bn/AssignMovingAvg_1/conv1/dw/bn/moving_variance/sub_1"
  op: "Sub"
  input: "conv1/dw/bn/AssignMovingAvg_1/conv1/dw/bn/moving_variance/sub_1/x"
  input: "conv1/dw/bn/AssignMovingAvg_1/decay"
  attr {
    key: "T"
    value {
      type: DT_FLOAT
    }
  }
  attr {
    key: "_class"
    value {
      list {
        s: "loc:@conv1/dw/bn/moving_variance"
      }
    }
  }
}
node {
  name: "conv1/dw/bn/AssignMovingAvg_1/conv1/dw/bn/moving_variance/read_1"
  op: "Identity"
  input: "conv1/dw/bn/moving_variance/local_step"
  input: "^conv1/dw/bn/AssignMovingAvg_1/conv1/dw/bn/moving_variance/AssignAdd"
  input: "^conv1/dw/bn/AssignMovingAvg_1/conv1/dw/bn/moving_variance/conv1/dw/bn/moving_variance"
  attr {
    key: "T"
    value {
      type: DT_FLOAT
    }
  }
  attr {
    key: "_class"
    value {
      list {
        s: "loc:@conv1/dw/bn/moving_variance"
      }
    }
  }
}
node {
  name: "conv1/dw/bn/AssignMovingAvg_1/conv1/dw/bn/moving_variance/Pow"
  op: "Pow"
  input: "conv1/dw/bn/AssignMovingAvg_1/conv1/dw/bn/moving_variance/sub_1"
  input: "conv1/dw/bn/AssignMovingAvg_1/conv1/dw/bn/moving_variance/read_1"
  attr {
    key: "T"
    value {
      type: DT_FLOAT
    }
  }
  attr {
    key: "_class"
    value {
      list {
        s: "loc:@conv1/dw/bn/moving_variance"
      }
    }
  }
}
node {
  name: "conv1/dw/bn/AssignMovingAvg_1/conv1/dw/bn/moving_variance/sub_2/x"
  op: "Const"
  input: "^conv1/dw/bn/AssignMovingAvg_1/conv1/dw/bn/moving_variance/AssignAdd"
  input: "^conv1/dw/bn/AssignMovingAvg_1/conv1/dw/bn/moving_variance/conv1/dw/bn/moving_variance"
  attr {
    key: "_class"
    value {
      list {
        s: "loc:@conv1/dw/bn/moving_variance"
      }
    }
  }
  attr {
    key: "dtype"
    value {
      type: DT_FLOAT
    }
  }
  attr {
    key: "value"
    value {
      tensor {
        dtype: DT_FLOAT
        tensor_shape {
        }
        float_val: 1.0
      }
    }
  }
}
node {
  name: "conv1/dw/bn/AssignMovingAvg_1/conv1/dw/bn/moving_variance/sub_2"
  op: "Sub"
  input: "conv1/dw/bn/AssignMovingAvg_1/conv1/dw/bn/moving_variance/sub_2/x"
  input: "conv1/dw/bn/AssignMovingAvg_1/conv1/dw/bn/moving_variance/Pow"
  attr {
    key: "T"
    value {
      type: DT_FLOAT
    }
  }
  attr {
    key: "_class"
    value {
      list {
        s: "loc:@conv1/dw/bn/moving_variance"
      }
    }
  }
}
node {
  name: "conv1/dw/bn/AssignMovingAvg_1/conv1/dw/bn/moving_variance/truediv"
  op: "RealDiv"
  input: "conv1/dw/bn/AssignMovingAvg_1/conv1/dw/bn/moving_variance/read"
  input: "conv1/dw/bn/AssignMovingAvg_1/conv1/dw/bn/moving_variance/sub_2"
  attr {
    key: "T"
    value {
      type: DT_FLOAT
    }
  }
  attr {
    key: "_class"
    value {
      list {
        s: "loc:@conv1/dw/bn/moving_variance"
      }
    }
  }
}
node {
  name: "conv1/dw/bn/AssignMovingAvg_1/conv1/dw/bn/moving_variance/sub_3"
  op: "Sub"
  input: "conv1/dw/bn/moving_variance/read"
  input: "conv1/dw/bn/AssignMovingAvg_1/conv1/dw/bn/moving_variance/truediv"
  attr {
    key: "T"
    value {
      type: DT_FLOAT
    }
  }
  attr {
    key: "_class"
    value {
      list {
        s: "loc:@conv1/dw/bn/moving_variance"
      }
    }
  }
}
node {
  name: "conv1/dw/bn/AssignMovingAvg_1"
  op: "AssignSub"
  input: "conv1/dw/bn/moving_variance"
  input: "conv1/dw/bn/AssignMovingAvg_1/conv1/dw/bn/moving_variance/sub_3"
  attr {
    key: "T"
    value {
      type: DT_FLOAT
    }
  }
  attr {
    key: "_class"
    value {
      list {
        s: "loc:@conv1/dw/bn/moving_variance"
      }
    }
  }
  attr {
    key: "use_locking"
    value {
      b: false
    }
  }
}
node {
  name: "conv1/dw/bn/FusedBatchNorm_1"
  op: "FusedBatchNorm"
  input: "conv1/dw/depthwise"
  input: "conv1/dw/bn/gamma/read"
  input: "conv1/dw/bn/beta/read"
  input: "conv1/dw/bn/moving_mean/read"
  input: "conv1/dw/bn/moving_variance/read"
  attr {
    key: "T"
    value {
      type: DT_FLOAT
    }
  }
  attr {
    key: "data_format"
    value {
      s: "NHWC"
    }
  }
  attr {
    key: "epsilon"
    value {
      f: 1.0009999641624745e-05
    }
  }
  attr {
    key: "is_training"
    value {
      b: false
    }
  }
}
node {
  name: "activation_2/Relu"
  op: "Relu"
  input: "conv1/dw/bn/FusedBatchNorm_1"
  attr {
    key: "T"
    value {
      type: DT_FLOAT
    }
  }
}
node {
  name: "conv1/random_uniform/shape"
  op: "Const"
  attr {
    key: "dtype"
    value {
      type: DT_INT32
    }
  }
  attr {
    key: "value"
    value {
      tensor {
        dtype: DT_INT32
        tensor_shape {
          dim {
            size: 4
          }
        }
        tensor_content: "\001\000\000\000\001\000\000\000 \000\000\000@\000\000\000"
      }
    }
  }
}
node {
  name: "conv1/random_uniform/min"
  op: "Const"
  attr {
    key: "dtype"
    value {
      type: DT_FLOAT
    }
  }
  attr {
    key: "value"
    value {
      tensor {
        dtype: DT_FLOAT
        tensor_shape {
        }
        float_val: -0.25
      }
    }
  }
}
node {
  name: "conv1/random_uniform/max"
  op: "Const"
  attr {
    key: "dtype"
    value {
      type: DT_FLOAT
    }
  }
  attr {
    key: "value"
    value {
      tensor {
        dtype: DT_FLOAT
        tensor_shape {
        }
        float_val: 0.25
      }
    }
  }
}
node {
  name: "conv1/random_uniform/RandomUniform"
  op: "RandomUniform"
  input: "conv1/random_uniform/shape"
  attr {
    key: "T"
    value {
      type: DT_INT32
    }
  }
  attr {
    key: "dtype"
    value {
      type: DT_FLOAT
    }
  }
  attr {
    key: "seed"
    value {
      i: 87654321
    }
  }
  attr {
    key: "seed2"
    value {
      i: 4684220
    }
  }
}
node {
  name: "conv1/random_uniform/sub"
  op: "Sub"
  input: "conv1/random_uniform/max"
  input: "conv1/random_uniform/min"
  attr {
    key: "T"
    value {
      type: DT_FLOAT
    }
  }
}
node {
  name: "conv1/random_uniform/mul"
  op: "Mul"
  input: "conv1/random_uniform/RandomUniform"
  input: "conv1/random_uniform/sub"
  attr {
    key: "T"
    value {
      type: DT_FLOAT
    }
  }
}
node {
  name: "conv1/random_uniform"
  op: "Add"
  input: "conv1/random_uniform/mul"
  input: "conv1/random_uniform/min"
  attr {
    key: "T"
    value {
      type: DT_FLOAT
    }
  }
}
node {
  name: "conv1/kernel"
  op: "VariableV2"
  attr {
    key: "container"
    value {
      s: ""
    }
  }
  attr {
    key: "dtype"
    value {
      type: DT_FLOAT
    }
  }
  attr {
    key: "shape"
    value {
      shape {
        dim {
          size: 1
        }
        dim {
          size: 1
        }
        dim {
          size: 32
        }
        dim {
          size: 64
        }
      }
    }
  }
  attr {
    key: "shared_name"
    value {
      s: ""
    }
  }
}
node {
  name: "conv1/kernel/Assign"
  op: "Assign"
  input: "conv1/kernel"
  input: "conv1/random_uniform"
  attr {
    key: "T"
    value {
      type: DT_FLOAT
    }
  }
  attr {
    key: "_class"
    value {
      list {
        s: "loc:@conv1/kernel"
      }
    }
  }
  attr {
    key: "use_locking"
    value {
      b: true
    }
  }
  attr {
    key: "validate_shape"
    value {
      b: true
    }
  }
}
node {
  name: "conv1/kernel/read"
  op: "Identity"
  input: "conv1/kernel"
  attr {
    key: "T"
    value {
      type: DT_FLOAT
    }
  }
  attr {
    key: "_class"
    value {
      list {
        s: "loc:@conv1/kernel"
      }
    }
  }
}
node {
  name: "conv1/convolution/dilation_rate"
  op: "Const"
  attr {
    key: "dtype"
    value {
      type: DT_INT32
    }
  }
  attr {
    key: "value"
    value {
      tensor {
        dtype: DT_INT32
        tensor_shape {
          dim {
            size: 2
          }
        }
        tensor_content: "\001\000\000\000\001\000\000\000"
      }
    }
  }
}
node {
  name: "conv1/convolution"
  op: "Conv2D"
  input: "activation_2/Relu"
  input: "conv1/kernel/read"
  attr {
    key: "T"
    value {
      type: DT_FLOAT
    }
  }
  attr {
    key: "data_format"
    value {
      s: "NHWC"
    }
  }
  attr {
    key: "dilations"
    value {
      list {
        i: 1
        i: 1
        i: 1
        i: 1
      }
    }
  }
  attr {
    key: "padding"
    value {
      s: "SAME"
    }
  }
  attr {
    key: "strides"
    value {
      list {
        i: 1
        i: 1
        i: 1
        i: 1
      }
    }
  }
  attr {
    key: "use_cudnn_on_gpu"
    value {
      b: true
    }
  }
}
node {
  name: "conv1/bn/Const"
  op: "Const"
  attr {
    key: "dtype"
    value {
      type: DT_FLOAT
    }
  }
  attr {
    key: "value"
    value {
      tensor {
        dtype: DT_FLOAT
        tensor_shape {
          dim {
            size: 64
          }
        }
        float_val: 1.0
      }
    }
  }
}
node {
  name: "conv1/bn/gamma"
  op: "VariableV2"
  attr {
    key: "container"
    value {
      s: ""
    }
  }
  attr {
    key: "dtype"
    value {
      type: DT_FLOAT
    }
  }
  attr {
    key: "shape"
    value {
      shape {
        dim {
          size: 64
        }
      }
    }
  }
  attr {
    key: "shared_name"
    value {
      s: ""
    }
  }
}
node {
  name: "conv1/bn/gamma/Assign"
  op: "Assign"
  input: "conv1/bn/gamma"
  input: "conv1/bn/Const"
  attr {
    key: "T"
    value {
      type: DT_FLOAT
    }
  }
  attr {
    key: "_class"
    value {
      list {
        s: "loc:@conv1/bn/gamma"
      }
    }
  }
  attr {
    key: "use_locking"
    value {
      b: true
    }
  }
  attr {
    key: "validate_shape"
    value {
      b: true
    }
  }
}
node {
  name: "conv1/bn/gamma/read"
  op: "Identity"
  input: "conv1/bn/gamma"
  attr {
    key: "T"
    value {
      type: DT_FLOAT
    }
  }
  attr {
    key: "_class"
    value {
      list {
        s: "loc:@conv1/bn/gamma"
      }
    }
  }
}
node {
  name: "conv1/bn/Const_1"
  op: "Const"
  attr {
    key: "dtype"
    value {
      type: DT_FLOAT
    }
  }
  attr {
    key: "value"
    value {
      tensor {
        dtype: DT_FLOAT
        tensor_shape {
          dim {
            size: 64
          }
        }
        float_val: 0.0
      }
    }
  }
}
node {
  name: "conv1/bn/beta"
  op: "VariableV2"
  attr {
    key: "container"
    value {
      s: ""
    }
  }
  attr {
    key: "dtype"
    value {
      type: DT_FLOAT
    }
  }
  attr {
    key: "shape"
    value {
      shape {
        dim {
          size: 64
        }
      }
    }
  }
  attr {
    key: "shared_name"
    value {
      s: ""
    }
  }
}
node {
  name: "conv1/bn/beta/Assign"
  op: "Assign"
  input: "conv1/bn/beta"
  input: "conv1/bn/Const_1"
  attr {
    key: "T"
    value {
      type: DT_FLOAT
    }
  }
  attr {
    key: "_class"
    value {
      list {
        s: "loc:@conv1/bn/beta"
      }
    }
  }
  attr {
    key: "use_locking"
    value {
      b: true
    }
  }
  attr {
    key: "validate_shape"
    value {
      b: true
    }
  }
}
node {
  name: "conv1/bn/beta/read"
  op: "Identity"
  input: "conv1/bn/beta"
  attr {
    key: "T"
    value {
      type: DT_FLOAT
    }
  }
  attr {
    key: "_class"
    value {
      list {
        s: "loc:@conv1/bn/beta"
      }
    }
  }
}
node {
  name: "conv1/bn/Const_2"
  op: "Const"
  attr {
    key: "dtype"
    value {
      type: DT_FLOAT
    }
  }
  attr {
    key: "value"
    value {
      tensor {
        dtype: DT_FLOAT
        tensor_shape {
          dim {
            size: 64
          }
        }
        float_val: 0.0
      }
    }
  }
}
node {
  name: "conv1/bn/moving_mean"
  op: "VariableV2"
  attr {
    key: "container"
    value {
      s: ""
    }
  }
  attr {
    key: "dtype"
    value {
      type: DT_FLOAT
    }
  }
  attr {
    key: "shape"
    value {
      shape {
        dim {
          size: 64
        }
      }
    }
  }
  attr {
    key: "shared_name"
    value {
      s: ""
    }
  }
}
node {
  name: "conv1/bn/moving_mean/Assign"
  op: "Assign"
  input: "conv1/bn/moving_mean"
  input: "conv1/bn/Const_2"
  attr {
    key: "T"
    value {
      type: DT_FLOAT
    }
  }
  attr {
    key: "_class"
    value {
      list {
        s: "loc:@conv1/bn/moving_mean"
      }
    }
  }
  attr {
    key: "use_locking"
    value {
      b: true
    }
  }
  attr {
    key: "validate_shape"
    value {
      b: true
    }
  }
}
node {
  name: "conv1/bn/moving_mean/read"
  op: "Identity"
  input: "conv1/bn/moving_mean"
  attr {
    key: "T"
    value {
      type: DT_FLOAT
    }
  }
  attr {
    key: "_class"
    value {
      list {
        s: "loc:@conv1/bn/moving_mean"
      }
    }
  }
}
node {
  name: "conv1/bn/Const_3"
  op: "Const"
  attr {
    key: "dtype"
    value {
      type: DT_FLOAT
    }
  }
  attr {
    key: "value"
    value {
      tensor {
        dtype: DT_FLOAT
        tensor_shape {
          dim {
            size: 64
          }
        }
        float_val: 1.0
      }
    }
  }
}
node {
  name: "conv1/bn/moving_variance"
  op: "VariableV2"
  attr {
    key: "container"
    value {
      s: ""
    }
  }
  attr {
    key: "dtype"
    value {
      type: DT_FLOAT
    }
  }
  attr {
    key: "shape"
    value {
      shape {
        dim {
          size: 64
        }
      }
    }
  }
  attr {
    key: "shared_name"
    value {
      s: ""
    }
  }
}
node {
  name: "conv1/bn/moving_variance/Assign"
  op: "Assign"
  input: "conv1/bn/moving_variance"
  input: "conv1/bn/Const_3"
  attr {
    key: "T"
    value {
      type: DT_FLOAT
    }
  }
  attr {
    key: "_class"
    value {
      list {
        s: "loc:@conv1/bn/moving_variance"
      }
    }
  }
  attr {
    key: "use_locking"
    value {
      b: true
    }
  }
  attr {
    key: "validate_shape"
    value {
      b: true
    }
  }
}
node {
  name: "conv1/bn/moving_variance/read"
  op: "Identity"
  input: "conv1/bn/moving_variance"
  attr {
    key: "T"
    value {
      type: DT_FLOAT
    }
  }
  attr {
    key: "_class"
    value {
      list {
        s: "loc:@conv1/bn/moving_variance"
      }
    }
  }
}
node {
  name: "conv1/bn/Const_4"
  op: "Const"
  attr {
    key: "dtype"
    value {
      type: DT_FLOAT
    }
  }
  attr {
    key: "value"
    value {
      tensor {
        dtype: DT_FLOAT
        tensor_shape {
          dim {
          }
        }
      }
    }
  }
}
node {
  name: "conv1/bn/Const_5"
  op: "Const"
  attr {
    key: "dtype"
    value {
      type: DT_FLOAT
    }
  }
  attr {
    key: "value"
    value {
      tensor {
        dtype: DT_FLOAT
        tensor_shape {
          dim {
          }
        }
      }
    }
  }
}
node {
  name: "conv1/bn/FusedBatchNorm"
  op: "FusedBatchNorm"
  input: "conv1/convolution"
  input: "conv1/bn/gamma/read"
  input: "conv1/bn/beta/read"
  input: "conv1/bn/Const_4"
  input: "conv1/bn/Const_5"
  attr {
    key: "T"
    value {
      type: DT_FLOAT
    }
  }
  attr {
    key: "data_format"
    value {
      s: "NHWC"
    }
  }
  attr {
    key: "epsilon"
    value {
      f: 1.0009999641624745e-05
    }
  }
  attr {
    key: "is_training"
    value {
      b: true
    }
  }
}
node {
  name: "conv1/bn/Shape"
  op: "Shape"
  input: "conv1/convolution"
  attr {
    key: "T"
    value {
      type: DT_FLOAT
    }
  }
  attr {
    key: "out_type"
    value {
      type: DT_INT32
    }
  }
}
node {
  name: "conv1/bn/strided_slice/stack"
  op: "Const"
  attr {
    key: "dtype"
    value {
      type: DT_INT32
    }
  }
  attr {
    key: "value"
    value {
      tensor {
        dtype: DT_INT32
        tensor_shape {
          dim {
            size: 1
          }
        }
        int_val: 0
      }
    }
  }
}
node {
  name: "conv1/bn/strided_slice/stack_1"
  op: "Const"
  attr {
    key: "dtype"
    value {
      type: DT_INT32
    }
  }
  attr {
    key: "value"
    value {
      tensor {
        dtype: DT_INT32
        tensor_shape {
          dim {
            size: 1
          }
        }
        int_val: 1
      }
    }
  }
}
node {
  name: "conv1/bn/strided_slice/stack_2"
  op: "Const"
  attr {
    key: "dtype"
    value {
      type: DT_INT32
    }
  }
  attr {
    key: "value"
    value {
      tensor {
        dtype: DT_INT32
        tensor_shape {
          dim {
            size: 1
          }
        }
        int_val: 1
      }
    }
  }
}
node {
  name: "conv1/bn/strided_slice"
  op: "StridedSlice"
  input: "conv1/bn/Shape"
  input: "conv1/bn/strided_slice/stack"
  input: "conv1/bn/strided_slice/stack_1"
  input: "conv1/bn/strided_slice/stack_2"
  attr {
    key: "Index"
    value {
      type: DT_INT32
    }
  }
  attr {
    key: "T"
    value {
      type: DT_INT32
    }
  }
  attr {
    key: "begin_mask"
    value {
      i: 0
    }
  }
  attr {
    key: "ellipsis_mask"
    value {
      i: 0
    }
  }
  attr {
    key: "end_mask"
    value {
      i: 0
    }
  }
  attr {
    key: "new_axis_mask"
    value {
      i: 0
    }
  }
  attr {
    key: "shrink_axis_mask"
    value {
      i: 1
    }
  }
}
node {
  name: "conv1/bn/Shape_1"
  op: "Shape"
  input: "conv1/convolution"
  attr {
    key: "T"
    value {
      type: DT_FLOAT
    }
  }
  attr {
    key: "out_type"
    value {
      type: DT_INT32
    }
  }
}
node {
  name: "conv1/bn/strided_slice_1/stack"
  op: "Const"
  attr {
    key: "dtype"
    value {
      type: DT_INT32
    }
  }
  attr {
    key: "value"
    value {
      tensor {
        dtype: DT_INT32
        tensor_shape {
          dim {
            size: 1
          }
        }
        int_val: 1
      }
    }
  }
}
node {
  name: "conv1/bn/strided_slice_1/stack_1"
  op: "Const"
  attr {
    key: "dtype"
    value {
      type: DT_INT32
    }
  }
  attr {
    key: "value"
    value {
      tensor {
        dtype: DT_INT32
        tensor_shape {
          dim {
            size: 1
          }
        }
        int_val: 2
      }
    }
  }
}
node {
  name: "conv1/bn/strided_slice_1/stack_2"
  op: "Const"
  attr {
    key: "dtype"
    value {
      type: DT_INT32
    }
  }
  attr {
    key: "value"
    value {
      tensor {
        dtype: DT_INT32
        tensor_shape {
          dim {
            size: 1
          }
        }
        int_val: 1
      }
    }
  }
}
node {
  name: "conv1/bn/strided_slice_1"
  op: "StridedSlice"
  input: "conv1/bn/Shape_1"
  input: "conv1/bn/strided_slice_1/stack"
  input: "conv1/bn/strided_slice_1/stack_1"
  input: "conv1/bn/strided_slice_1/stack_2"
  attr {
    key: "Index"
    value {
      type: DT_INT32
    }
  }
  attr {
    key: "T"
    value {
      type: DT_INT32
    }
  }
  attr {
    key: "begin_mask"
    value {
      i: 0
    }
  }
  attr {
    key: "ellipsis_mask"
    value {
      i: 0
    }
  }
  attr {
    key: "end_mask"
    value {
      i: 0
    }
  }
  attr {
    key: "new_axis_mask"
    value {
      i: 0
    }
  }
  attr {
    key: "shrink_axis_mask"
    value {
      i: 1
    }
  }
}
node {
  name: "conv1/bn/Shape_2"
  op: "Shape"
  input: "conv1/convolution"
  attr {
    key: "T"
    value {
      type: DT_FLOAT
    }
  }
  attr {
    key: "out_type"
    value {
      type: DT_INT32
    }
  }
}
node {
  name: "conv1/bn/strided_slice_2/stack"
  op: "Const"
  attr {
    key: "dtype"
    value {
      type: DT_INT32
    }
  }
  attr {
    key: "value"
    value {
      tensor {
        dtype: DT_INT32
        tensor_shape {
          dim {
            size: 1
          }
        }
        int_val: 2
      }
    }
  }
}
node {
  name: "conv1/bn/strided_slice_2/stack_1"
  op: "Const"
  attr {
    key: "dtype"
    value {
      type: DT_INT32
    }
  }
  attr {
    key: "value"
    value {
      tensor {
        dtype: DT_INT32
        tensor_shape {
          dim {
            size: 1
          }
        }
        int_val: 3
      }
    }
  }
}
node {
  name: "conv1/bn/strided_slice_2/stack_2"
  op: "Const"
  attr {
    key: "dtype"
    value {
      type: DT_INT32
    }
  }
  attr {
    key: "value"
    value {
      tensor {
        dtype: DT_INT32
        tensor_shape {
          dim {
            size: 1
          }
        }
        int_val: 1
      }
    }
  }
}
node {
  name: "conv1/bn/strided_slice_2"
  op: "StridedSlice"
  input: "conv1/bn/Shape_2"
  input: "conv1/bn/strided_slice_2/stack"
  input: "conv1/bn/strided_slice_2/stack_1"
  input: "conv1/bn/strided_slice_2/stack_2"
  attr {
    key: "Index"
    value {
      type: DT_INT32
    }
  }
  attr {
    key: "T"
    value {
      type: DT_INT32
    }
  }
  attr {
    key: "begin_mask"
    value {
      i: 0
    }
  }
  attr {
    key: "ellipsis_mask"
    value {
      i: 0
    }
  }
  attr {
    key: "end_mask"
    value {
      i: 0
    }
  }
  attr {
    key: "new_axis_mask"
    value {
      i: 0
    }
  }
  attr {
    key: "shrink_axis_mask"
    value {
      i: 1
    }
  }
}
node {
  name: "conv1/bn/Rank/packed"
  op: "Pack"
  input: "conv1/bn/strided_slice"
  input: "conv1/bn/strided_slice_1"
  input: "conv1/bn/strided_slice_2"
  attr {
    key: "N"
    value {
      i: 3
    }
  }
  attr {
    key: "T"
    value {
      type: DT_INT32
    }
  }
  attr {
    key: "axis"
    value {
      i: 0
    }
  }
}
node {
  name: "conv1/bn/Rank"
  op: "Const"
  attr {
    key: "dtype"
    value {
      type: DT_INT32
    }
  }
  attr {
    key: "value"
    value {
      tensor {
        dtype: DT_INT32
        tensor_shape {
        }
        int_val: 1
      }
    }
  }
}
node {
  name: "conv1/bn/range/start"
  op: "Const"
  attr {
    key: "dtype"
    value {
      type: DT_INT32
    }
  }
  attr {
    key: "value"
    value {
      tensor {
        dtype: DT_INT32
        tensor_shape {
        }
        int_val: 0
      }
    }
  }
}
node {
  name: "conv1/bn/range/delta"
  op: "Const"
  attr {
    key: "dtype"
    value {
      type: DT_INT32
    }
  }
  attr {
    key: "value"
    value {
      tensor {
        dtype: DT_INT32
        tensor_shape {
        }
        int_val: 1
      }
    }
  }
}
node {
  name: "conv1/bn/range"
  op: "Range"
  input: "conv1/bn/range/start"
  input: "conv1/bn/Rank"
  input: "conv1/bn/range/delta"
  attr {
    key: "Tidx"
    value {
      type: DT_INT32
    }
  }
}
node {
  name: "conv1/bn/Prod/input"
  op: "Pack"
  input: "conv1/bn/strided_slice"
  input: "conv1/bn/strided_slice_1"
  input: "conv1/bn/strided_slice_2"
  attr {
    key: "N"
    value {
      i: 3
    }
  }
  attr {
    key: "T"
    value {
      type: DT_INT32
    }
  }
  attr {
    key: "axis"
    value {
      i: 0
    }
  }
}
node {
  name: "conv1/bn/Prod"
  op: "Prod"
  input: "conv1/bn/Prod/input"
  input: "conv1/bn/range"
  attr {
    key: "T"
    value {
      type: DT_INT32
    }
  }
  attr {
    key: "Tidx"
    value {
      type: DT_INT32
    }
  }
  attr {
    key: "keep_dims"
    value {
      b: false
    }
  }
}
node {
  name: "conv1/bn/Cast"
  op: "Cast"
  input: "conv1/bn/Prod"
  attr {
    key: "DstT"
    value {
      type: DT_FLOAT
    }
  }
  attr {
    key: "SrcT"
    value {
      type: DT_INT32
    }
  }
}
node {
  name: "conv1/bn/sub/y"
  op: "Const"
  attr {
    key: "dtype"
    value {
      type: DT_FLOAT
    }
  }
  attr {
    key: "value"
    value {
      tensor {
        dtype: DT_FLOAT
        tensor_shape {
        }
        float_val: 1.0000100135803223
      }
    }
  }
}
node {
  name: "conv1/bn/sub"
  op: "Sub"
  input: "conv1/bn/Cast"
  input: "conv1/bn/sub/y"
  attr {
    key: "T"
    value {
      type: DT_FLOAT
    }
  }
}
node {
  name: "conv1/bn/truediv"
  op: "RealDiv"
  input: "conv1/bn/Cast"
  input: "conv1/bn/sub"
  attr {
    key: "T"
    value {
      type: DT_FLOAT
    }
  }
}
node {
  name: "conv1/bn/mul"
  op: "Mul"
  input: "conv1/bn/FusedBatchNorm:2"
  input: "conv1/bn/truediv"
  attr {
    key: "T"
    value {
      type: DT_FLOAT
    }
  }
}
node {
  name: "conv1/bn/AssignMovingAvg/decay"
  op: "Const"
  attr {
    key: "_class"
    value {
      list {
        s: "loc:@conv1/bn/moving_mean"
      }
    }
  }
  attr {
    key: "dtype"
    value {
      type: DT_FLOAT
    }
  }
  attr {
    key: "value"
    value {
      tensor {
        dtype: DT_FLOAT
        tensor_shape {
        }
        float_val: 0.009999999776482582
      }
    }
  }
}
node {
  name: "conv1/bn/AssignMovingAvg/conv1/bn/moving_mean/zeros"
  op: "Const"
  attr {
    key: "_class"
    value {
      list {
        s: "loc:@conv1/bn/moving_mean"
      }
    }
  }
  attr {
    key: "dtype"
    value {
      type: DT_FLOAT
    }
  }
  attr {
    key: "value"
    value {
      tensor {
        dtype: DT_FLOAT
        tensor_shape {
          dim {
            size: 64
          }
        }
        float_val: 0.0
      }
    }
  }
}
node {
  name: "conv1/bn/moving_mean/biased"
  op: "VariableV2"
  attr {
    key: "_class"
    value {
      list {
        s: "loc:@conv1/bn/moving_mean"
      }
    }
  }
  attr {
    key: "container"
    value {
      s: ""
    }
  }
  attr {
    key: "dtype"
    value {
      type: DT_FLOAT
    }
  }
  attr {
    key: "shape"
    value {
      shape {
        dim {
          size: 64
        }
      }
    }
  }
  attr {
    key: "shared_name"
    value {
      s: ""
    }
  }
}
node {
  name: "conv1/bn/moving_mean/biased/Assign"
  op: "Assign"
  input: "conv1/bn/moving_mean/biased"
  input: "conv1/bn/AssignMovingAvg/conv1/bn/moving_mean/zeros"
  attr {
    key: "T"
    value {
      type: DT_FLOAT
    }
  }
  attr {
    key: "_class"
    value {
      list {
        s: "loc:@conv1/bn/moving_mean"
      }
    }
  }
  attr {
    key: "use_locking"
    value {
      b: true
    }
  }
  attr {
    key: "validate_shape"
    value {
      b: true
    }
  }
}
node {
  name: "conv1/bn/moving_mean/biased/read"
  op: "Identity"
  input: "conv1/bn/moving_mean/biased"
  attr {
    key: "T"
    value {
      type: DT_FLOAT
    }
  }
  attr {
    key: "_class"
    value {
      list {
        s: "loc:@conv1/bn/moving_mean"
      }
    }
  }
}
node {
  name: "conv1/bn/moving_mean/local_step/Initializer/zeros"
  op: "Const"
  attr {
    key: "_class"
    value {
      list {
        s: "loc:@conv1/bn/moving_mean"
      }
    }
  }
  attr {
    key: "dtype"
    value {
      type: DT_FLOAT
    }
  }
  attr {
    key: "value"
    value {
      tensor {
        dtype: DT_FLOAT
        tensor_shape {
        }
        float_val: 0.0
      }
    }
  }
}
node {
  name: "conv1/bn/moving_mean/local_step"
  op: "VariableV2"
  attr {
    key: "_class"
    value {
      list {
        s: "loc:@conv1/bn/moving_mean"
      }
    }
  }
  attr {
    key: "container"
    value {
      s: ""
    }
  }
  attr {
    key: "dtype"
    value {
      type: DT_FLOAT
    }
  }
  attr {
    key: "shape"
    value {
      shape {
      }
    }
  }
  attr {
    key: "shared_name"
    value {
      s: ""
    }
  }
}
node {
  name: "conv1/bn/moving_mean/local_step/Assign"
  op: "Assign"
  input: "conv1/bn/moving_mean/local_step"
  input: "conv1/bn/moving_mean/local_step/Initializer/zeros"
  attr {
    key: "T"
    value {
      type: DT_FLOAT
    }
  }
  attr {
    key: "_class"
    value {
      list {
        s: "loc:@conv1/bn/moving_mean"
      }
    }
  }
  attr {
    key: "use_locking"
    value {
      b: true
    }
  }
  attr {
    key: "validate_shape"
    value {
      b: true
    }
  }
}
node {
  name: "conv1/bn/moving_mean/local_step/read"
  op: "Identity"
  input: "conv1/bn/moving_mean/local_step"
  attr {
    key: "T"
    value {
      type: DT_FLOAT
    }
  }
  attr {
    key: "_class"
    value {
      list {
        s: "loc:@conv1/bn/moving_mean"
      }
    }
  }
}
node {
  name: "conv1/bn/AssignMovingAvg/conv1/bn/moving_mean/sub"
  op: "Sub"
  input: "conv1/bn/moving_mean/biased/read"
  input: "conv1/bn/FusedBatchNorm:1"
  attr {
    key: "T"
    value {
      type: DT_FLOAT
    }
  }
  attr {
    key: "_class"
    value {
      list {
        s: "loc:@conv1/bn/moving_mean"
      }
    }
  }
}
node {
  name: "conv1/bn/AssignMovingAvg/conv1/bn/moving_mean/mul"
  op: "Mul"
  input: "conv1/bn/AssignMovingAvg/conv1/bn/moving_mean/sub"
  input: "conv1/bn/AssignMovingAvg/decay"
  attr {
    key: "T"
    value {
      type: DT_FLOAT
    }
  }
  attr {
    key: "_class"
    value {
      list {
        s: "loc:@conv1/bn/moving_mean"
      }
    }
  }
}
node {
  name: "conv1/bn/AssignMovingAvg/conv1/bn/moving_mean/conv1/bn/moving_mean"
  op: "AssignSub"
  input: "conv1/bn/moving_mean/biased"
  input: "conv1/bn/AssignMovingAvg/conv1/bn/moving_mean/mul"
  attr {
    key: "T"
    value {
      type: DT_FLOAT
    }
  }
  attr {
    key: "_class"
    value {
      list {
        s: "loc:@conv1/bn/moving_mean"
      }
    }
  }
  attr {
    key: "use_locking"
    value {
      b: false
    }
  }
}
node {
  name: "conv1/bn/AssignMovingAvg/conv1/bn/moving_mean/AssignAdd/value"
  op: "Const"
  attr {
    key: "_class"
    value {
      list {
        s: "loc:@conv1/bn/moving_mean"
      }
    }
  }
  attr {
    key: "dtype"
    value {
      type: DT_FLOAT
    }
  }
  attr {
    key: "value"
    value {
      tensor {
        dtype: DT_FLOAT
        tensor_shape {
        }
        float_val: 1.0
      }
    }
  }
}
node {
  name: "conv1/bn/AssignMovingAvg/conv1/bn/moving_mean/AssignAdd"
  op: "AssignAdd"
  input: "conv1/bn/moving_mean/local_step"
  input: "conv1/bn/AssignMovingAvg/conv1/bn/moving_mean/AssignAdd/value"
  attr {
    key: "T"
    value {
      type: DT_FLOAT
    }
  }
  attr {
    key: "_class"
    value {
      list {
        s: "loc:@conv1/bn/moving_mean"
      }
    }
  }
  attr {
    key: "use_locking"
    value {
      b: false
    }
  }
}
node {
  name: "conv1/bn/AssignMovingAvg/conv1/bn/moving_mean/read"
  op: "Identity"
  input: "conv1/bn/moving_mean/biased"
  input: "^conv1/bn/AssignMovingAvg/conv1/bn/moving_mean/AssignAdd"
  input: "^conv1/bn/AssignMovingAvg/conv1/bn/moving_mean/conv1/bn/moving_mean"
  attr {
    key: "T"
    value {
      type: DT_FLOAT
    }
  }
  attr {
    key: "_class"
    value {
      list {
        s: "loc:@conv1/bn/moving_mean"
      }
    }
  }
}
node {
  name: "conv1/bn/AssignMovingAvg/conv1/bn/moving_mean/sub_1/x"
  op: "Const"
  input: "^conv1/bn/AssignMovingAvg/conv1/bn/moving_mean/AssignAdd"
  input: "^conv1/bn/AssignMovingAvg/conv1/bn/moving_mean/conv1/bn/moving_mean"
  attr {
    key: "_class"
    value {
      list {
        s: "loc:@conv1/bn/moving_mean"
      }
    }
  }
  attr {
    key: "dtype"
    value {
      type: DT_FLOAT
    }
  }
  attr {
    key: "value"
    value {
      tensor {
        dtype: DT_FLOAT
        tensor_shape {
        }
        float_val: 1.0
      }
    }
  }
}
node {
  name: "conv1/bn/AssignMovingAvg/conv1/bn/moving_mean/sub_1"
  op: "Sub"
  input: "conv1/bn/AssignMovingAvg/conv1/bn/moving_mean/sub_1/x"
  input: "conv1/bn/AssignMovingAvg/decay"
  attr {
    key: "T"
    value {
      type: DT_FLOAT
    }
  }
  attr {
    key: "_class"
    value {
      list {
        s: "loc:@conv1/bn/moving_mean"
      }
    }
  }
}
node {
  name: "conv1/bn/AssignMovingAvg/conv1/bn/moving_mean/read_1"
  op: "Identity"
  input: "conv1/bn/moving_mean/local_step"
  input: "^conv1/bn/AssignMovingAvg/conv1/bn/moving_mean/AssignAdd"
  input: "^conv1/bn/AssignMovingAvg/conv1/bn/moving_mean/conv1/bn/moving_mean"
  attr {
    key: "T"
    value {
      type: DT_FLOAT
    }
  }
  attr {
    key: "_class"
    value {
      list {
        s: "loc:@conv1/bn/moving_mean"
      }
    }
  }
}
node {
  name: "conv1/bn/AssignMovingAvg/conv1/bn/moving_mean/Pow"
  op: "Pow"
  input: "conv1/bn/AssignMovingAvg/conv1/bn/moving_mean/sub_1"
  input: "conv1/bn/AssignMovingAvg/conv1/bn/moving_mean/read_1"
  attr {
    key: "T"
    value {
      type: DT_FLOAT
    }
  }
  attr {
    key: "_class"
    value {
      list {
        s: "loc:@conv1/bn/moving_mean"
      }
    }
  }
}
node {
  name: "conv1/bn/AssignMovingAvg/conv1/bn/moving_mean/sub_2/x"
  op: "Const"
  input: "^conv1/bn/AssignMovingAvg/conv1/bn/moving_mean/AssignAdd"
  input: "^conv1/bn/AssignMovingAvg/conv1/bn/moving_mean/conv1/bn/moving_mean"
  attr {
    key: "_class"
    value {
      list {
        s: "loc:@conv1/bn/moving_mean"
      }
    }
  }
  attr {
    key: "dtype"
    value {
      type: DT_FLOAT
    }
  }
  attr {
    key: "value"
    value {
      tensor {
        dtype: DT_FLOAT
        tensor_shape {
        }
        float_val: 1.0
      }
    }
  }
}
node {
  name: "conv1/bn/AssignMovingAvg/conv1/bn/moving_mean/sub_2"
  op: "Sub"
  input: "conv1/bn/AssignMovingAvg/conv1/bn/moving_mean/sub_2/x"
  input: "conv1/bn/AssignMovingAvg/conv1/bn/moving_mean/Pow"
  attr {
    key: "T"
    value {
      type: DT_FLOAT
    }
  }
  attr {
    key: "_class"
    value {
      list {
        s: "loc:@conv1/bn/moving_mean"
      }
    }
  }
}
node {
  name: "conv1/bn/AssignMovingAvg/conv1/bn/moving_mean/truediv"
  op: "RealDiv"
  input: "conv1/bn/AssignMovingAvg/conv1/bn/moving_mean/read"
  input: "conv1/bn/AssignMovingAvg/conv1/bn/moving_mean/sub_2"
  attr {
    key: "T"
    value {
      type: DT_FLOAT
    }
  }
  attr {
    key: "_class"
    value {
      list {
        s: "loc:@conv1/bn/moving_mean"
      }
    }
  }
}
node {
  name: "conv1/bn/AssignMovingAvg/conv1/bn/moving_mean/sub_3"
  op: "Sub"
  input: "conv1/bn/moving_mean/read"
  input: "conv1/bn/AssignMovingAvg/conv1/bn/moving_mean/truediv"
  attr {
    key: "T"
    value {
      type: DT_FLOAT
    }
  }
  attr {
    key: "_class"
    value {
      list {
        s: "loc:@conv1/bn/moving_mean"
      }
    }
  }
}
node {
  name: "conv1/bn/AssignMovingAvg"
  op: "AssignSub"
  input: "conv1/bn/moving_mean"
  input: "conv1/bn/AssignMovingAvg/conv1/bn/moving_mean/sub_3"
  attr {
    key: "T"
    value {
      type: DT_FLOAT
    }
  }
  attr {
    key: "_class"
    value {
      list {
        s: "loc:@conv1/bn/moving_mean"
      }
    }
  }
  attr {
    key: "use_locking"
    value {
      b: false
    }
  }
}
node {
  name: "conv1/bn/AssignMovingAvg_1/decay"
  op: "Const"
  attr {
    key: "_class"
    value {
      list {
        s: "loc:@conv1/bn/moving_variance"
      }
    }
  }
  attr {
    key: "dtype"
    value {
      type: DT_FLOAT
    }
  }
  attr {
    key: "value"
    value {
      tensor {
        dtype: DT_FLOAT
        tensor_shape {
        }
        float_val: 0.009999999776482582
      }
    }
  }
}
node {
  name: "conv1/bn/AssignMovingAvg_1/conv1/bn/moving_variance/zeros"
  op: "Const"
  attr {
    key: "_class"
    value {
      list {
        s: "loc:@conv1/bn/moving_variance"
      }
    }
  }
  attr {
    key: "dtype"
    value {
      type: DT_FLOAT
    }
  }
  attr {
    key: "value"
    value {
      tensor {
        dtype: DT_FLOAT
        tensor_shape {
          dim {
            size: 64
          }
        }
        float_val: 0.0
      }
    }
  }
}
node {
  name: "conv1/bn/moving_variance/biased"
  op: "VariableV2"
  attr {
    key: "_class"
    value {
      list {
        s: "loc:@conv1/bn/moving_variance"
      }
    }
  }
  attr {
    key: "container"
    value {
      s: ""
    }
  }
  attr {
    key: "dtype"
    value {
      type: DT_FLOAT
    }
  }
  attr {
    key: "shape"
    value {
      shape {
        dim {
          size: 64
        }
      }
    }
  }
  attr {
    key: "shared_name"
    value {
      s: ""
    }
  }
}
node {
  name: "conv1/bn/moving_variance/biased/Assign"
  op: "Assign"
  input: "conv1/bn/moving_variance/biased"
  input: "conv1/bn/AssignMovingAvg_1/conv1/bn/moving_variance/zeros"
  attr {
    key: "T"
    value {
      type: DT_FLOAT
    }
  }
  attr {
    key: "_class"
    value {
      list {
        s: "loc:@conv1/bn/moving_variance"
      }
    }
  }
  attr {
    key: "use_locking"
    value {
      b: true
    }
  }
  attr {
    key: "validate_shape"
    value {
      b: true
    }
  }
}
node {
  name: "conv1/bn/moving_variance/biased/read"
  op: "Identity"
  input: "conv1/bn/moving_variance/biased"
  attr {
    key: "T"
    value {
      type: DT_FLOAT
    }
  }
  attr {
    key: "_class"
    value {
      list {
        s: "loc:@conv1/bn/moving_variance"
      }
    }
  }
}
node {
  name: "conv1/bn/moving_variance/local_step/Initializer/zeros"
  op: "Const"
  attr {
    key: "_class"
    value {
      list {
        s: "loc:@conv1/bn/moving_variance"
      }
    }
  }
  attr {
    key: "dtype"
    value {
      type: DT_FLOAT
    }
  }
  attr {
    key: "value"
    value {
      tensor {
        dtype: DT_FLOAT
        tensor_shape {
        }
        float_val: 0.0
      }
    }
  }
}
node {
  name: "conv1/bn/moving_variance/local_step"
  op: "VariableV2"
  attr {
    key: "_class"
    value {
      list {
        s: "loc:@conv1/bn/moving_variance"
      }
    }
  }
  attr {
    key: "container"
    value {
      s: ""
    }
  }
  attr {
    key: "dtype"
    value {
      type: DT_FLOAT
    }
  }
  attr {
    key: "shape"
    value {
      shape {
      }
    }
  }
  attr {
    key: "shared_name"
    value {
      s: ""
    }
  }
}
node {
  name: "conv1/bn/moving_variance/local_step/Assign"
  op: "Assign"
  input: "conv1/bn/moving_variance/local_step"
  input: "conv1/bn/moving_variance/local_step/Initializer/zeros"
  attr {
    key: "T"
    value {
      type: DT_FLOAT
    }
  }
  attr {
    key: "_class"
    value {
      list {
        s: "loc:@conv1/bn/moving_variance"
      }
    }
  }
  attr {
    key: "use_locking"
    value {
      b: true
    }
  }
  attr {
    key: "validate_shape"
    value {
      b: true
    }
  }
}
node {
  name: "conv1/bn/moving_variance/local_step/read"
  op: "Identity"
  input: "conv1/bn/moving_variance/local_step"
  attr {
    key: "T"
    value {
      type: DT_FLOAT
    }
  }
  attr {
    key: "_class"
    value {
      list {
        s: "loc:@conv1/bn/moving_variance"
      }
    }
  }
}
node {
  name: "conv1/bn/AssignMovingAvg_1/conv1/bn/moving_variance/sub"
  op: "Sub"
  input: "conv1/bn/moving_variance/biased/read"
  input: "conv1/bn/mul"
  attr {
    key: "T"
    value {
      type: DT_FLOAT
    }
  }
  attr {
    key: "_class"
    value {
      list {
        s: "loc:@conv1/bn/moving_variance"
      }
    }
  }
}
node {
  name: "conv1/bn/AssignMovingAvg_1/conv1/bn/moving_variance/mul"
  op: "Mul"
  input: "conv1/bn/AssignMovingAvg_1/conv1/bn/moving_variance/sub"
  input: "conv1/bn/AssignMovingAvg_1/decay"
  attr {
    key: "T"
    value {
      type: DT_FLOAT
    }
  }
  attr {
    key: "_class"
    value {
      list {
        s: "loc:@conv1/bn/moving_variance"
      }
    }
  }
}
node {
  name: "conv1/bn/AssignMovingAvg_1/conv1/bn/moving_variance/conv1/bn/moving_variance"
  op: "AssignSub"
  input: "conv1/bn/moving_variance/biased"
  input: "conv1/bn/AssignMovingAvg_1/conv1/bn/moving_variance/mul"
  attr {
    key: "T"
    value {
      type: DT_FLOAT
    }
  }
  attr {
    key: "_class"
    value {
      list {
        s: "loc:@conv1/bn/moving_variance"
      }
    }
  }
  attr {
    key: "use_locking"
    value {
      b: false
    }
  }
}
node {
  name: "conv1/bn/AssignMovingAvg_1/conv1/bn/moving_variance/AssignAdd/value"
  op: "Const"
  attr {
    key: "_class"
    value {
      list {
        s: "loc:@conv1/bn/moving_variance"
      }
    }
  }
  attr {
    key: "dtype"
    value {
      type: DT_FLOAT
    }
  }
  attr {
    key: "value"
    value {
      tensor {
        dtype: DT_FLOAT
        tensor_shape {
        }
        float_val: 1.0
      }
    }
  }
}
node {
  name: "conv1/bn/AssignMovingAvg_1/conv1/bn/moving_variance/AssignAdd"
  op: "AssignAdd"
  input: "conv1/bn/moving_variance/local_step"
  input: "conv1/bn/AssignMovingAvg_1/conv1/bn/moving_variance/AssignAdd/value"
  attr {
    key: "T"
    value {
      type: DT_FLOAT
    }
  }
  attr {
    key: "_class"
    value {
      list {
        s: "loc:@conv1/bn/moving_variance"
      }
    }
  }
  attr {
    key: "use_locking"
    value {
      b: false
    }
  }
}
node {
  name: "conv1/bn/AssignMovingAvg_1/conv1/bn/moving_variance/read"
  op: "Identity"
  input: "conv1/bn/moving_variance/biased"
  input: "^conv1/bn/AssignMovingAvg_1/conv1/bn/moving_variance/AssignAdd"
  input: "^conv1/bn/AssignMovingAvg_1/conv1/bn/moving_variance/conv1/bn/moving_variance"
  attr {
    key: "T"
    value {
      type: DT_FLOAT
    }
  }
  attr {
    key: "_class"
    value {
      list {
        s: "loc:@conv1/bn/moving_variance"
      }
    }
  }
}
node {
  name: "conv1/bn/AssignMovingAvg_1/conv1/bn/moving_variance/sub_1/x"
  op: "Const"
  input: "^conv1/bn/AssignMovingAvg_1/conv1/bn/moving_variance/AssignAdd"
  input: "^conv1/bn/AssignMovingAvg_1/conv1/bn/moving_variance/conv1/bn/moving_variance"
  attr {
    key: "_class"
    value {
      list {
        s: "loc:@conv1/bn/moving_variance"
      }
    }
  }
  attr {
    key: "dtype"
    value {
      type: DT_FLOAT
    }
  }
  attr {
    key: "value"
    value {
      tensor {
        dtype: DT_FLOAT
        tensor_shape {
        }
        float_val: 1.0
      }
    }
  }
}
node {
  name: "conv1/bn/AssignMovingAvg_1/conv1/bn/moving_variance/sub_1"
  op: "Sub"
  input: "conv1/bn/AssignMovingAvg_1/conv1/bn/moving_variance/sub_1/x"
  input: "conv1/bn/AssignMovingAvg_1/decay"
  attr {
    key: "T"
    value {
      type: DT_FLOAT
    }
  }
  attr {
    key: "_class"
    value {
      list {
        s: "loc:@conv1/bn/moving_variance"
      }
    }
  }
}
node {
  name: "conv1/bn/AssignMovingAvg_1/conv1/bn/moving_variance/read_1"
  op: "Identity"
  input: "conv1/bn/moving_variance/local_step"
  input: "^conv1/bn/AssignMovingAvg_1/conv1/bn/moving_variance/AssignAdd"
  input: "^conv1/bn/AssignMovingAvg_1/conv1/bn/moving_variance/conv1/bn/moving_variance"
  attr {
    key: "T"
    value {
      type: DT_FLOAT
    }
  }
  attr {
    key: "_class"
    value {
      list {
        s: "loc:@conv1/bn/moving_variance"
      }
    }
  }
}
node {
  name: "conv1/bn/AssignMovingAvg_1/conv1/bn/moving_variance/Pow"
  op: "Pow"
  input: "conv1/bn/AssignMovingAvg_1/conv1/bn/moving_variance/sub_1"
  input: "conv1/bn/AssignMovingAvg_1/conv1/bn/moving_variance/read_1"
  attr {
    key: "T"
    value {
      type: DT_FLOAT
    }
  }
  attr {
    key: "_class"
    value {
      list {
        s: "loc:@conv1/bn/moving_variance"
      }
    }
  }
}
node {
  name: "conv1/bn/AssignMovingAvg_1/conv1/bn/moving_variance/sub_2/x"
  op: "Const"
  input: "^conv1/bn/AssignMovingAvg_1/conv1/bn/moving_variance/AssignAdd"
  input: "^conv1/bn/AssignMovingAvg_1/conv1/bn/moving_variance/conv1/bn/moving_variance"
  attr {
    key: "_class"
    value {
      list {
        s: "loc:@conv1/bn/moving_variance"
      }
    }
  }
  attr {
    key: "dtype"
    value {
      type: DT_FLOAT
    }
  }
  attr {
    key: "value"
    value {
      tensor {
        dtype: DT_FLOAT
        tensor_shape {
        }
        float_val: 1.0
      }
    }
  }
}
node {
  name: "conv1/bn/AssignMovingAvg_1/conv1/bn/moving_variance/sub_2"
  op: "Sub"
  input: "conv1/bn/AssignMovingAvg_1/conv1/bn/moving_variance/sub_2/x"
  input: "conv1/bn/AssignMovingAvg_1/conv1/bn/moving_variance/Pow"
  attr {
    key: "T"
    value {
      type: DT_FLOAT
    }
  }
  attr {
    key: "_class"
    value {
      list {
        s: "loc:@conv1/bn/moving_variance"
      }
    }
  }
}
node {
  name: "conv1/bn/AssignMovingAvg_1/conv1/bn/moving_variance/truediv"
  op: "RealDiv"
  input: "conv1/bn/AssignMovingAvg_1/conv1/bn/moving_variance/read"
  input: "conv1/bn/AssignMovingAvg_1/conv1/bn/moving_variance/sub_2"
  attr {
    key: "T"
    value {
      type: DT_FLOAT
    }
  }
  attr {
    key: "_class"
    value {
      list {
        s: "loc:@conv1/bn/moving_variance"
      }
    }
  }
}
node {
  name: "conv1/bn/AssignMovingAvg_1/conv1/bn/moving_variance/sub_3"
  op: "Sub"
  input: "conv1/bn/moving_variance/read"
  input: "conv1/bn/AssignMovingAvg_1/conv1/bn/moving_variance/truediv"
  attr {
    key: "T"
    value {
      type: DT_FLOAT
    }
  }
  attr {
    key: "_class"
    value {
      list {
        s: "loc:@conv1/bn/moving_variance"
      }
    }
  }
}
node {
  name: "conv1/bn/AssignMovingAvg_1"
  op: "AssignSub"
  input: "conv1/bn/moving_variance"
  input: "conv1/bn/AssignMovingAvg_1/conv1/bn/moving_variance/sub_3"
  attr {
    key: "T"
    value {
      type: DT_FLOAT
    }
  }
  attr {
    key: "_class"
    value {
      list {
        s: "loc:@conv1/bn/moving_variance"
      }
    }
  }
  attr {
    key: "use_locking"
    value {
      b: false
    }
  }
}
node {
  name: "conv1/bn/FusedBatchNorm_1"
  op: "FusedBatchNorm"
  input: "conv1/convolution"
  input: "conv1/bn/gamma/read"
  input: "conv1/bn/beta/read"
  input: "conv1/bn/moving_mean/read"
  input: "conv1/bn/moving_variance/read"
  attr {
    key: "T"
    value {
      type: DT_FLOAT
    }
  }
  attr {
    key: "data_format"
    value {
      s: "NHWC"
    }
  }
  attr {
    key: "epsilon"
    value {
      f: 1.0009999641624745e-05
    }
  }
  attr {
    key: "is_training"
    value {
      b: false
    }
  }
}
node {
  name: "activation_3/Relu"
  op: "Relu"
  input: "conv1/bn/FusedBatchNorm_1"
  attr {
    key: "T"
    value {
      type: DT_FLOAT
    }
  }
}
node {
  name: "conv2_padding/Pad/paddings"
  op: "Const"
  attr {
    key: "dtype"
    value {
      type: DT_INT32
    }
  }
  attr {
    key: "value"
    value {
      tensor {
        dtype: DT_INT32
        tensor_shape {
          dim {
            size: 4
          }
          dim {
            size: 2
          }
        }
        tensor_content: "…"
      }
    }
  }
}
node {
  name: "conv2_padding/Pad"
  op: "Pad"
  input: "activation_3/Relu"
  input: "conv2_padding/Pad/paddings"
  attr {
    key: "T"
    value {
      type: DT_FLOAT
    }
  }
  attr {
    key: "Tpaddings"
    value {
      type: DT_INT32
    }
  }
}
node {
  name: "conv2/dw/random_uniform/shape"
  op: "Const"
  attr {
    key: "dtype"
    value {
      type: DT_INT32
    }
  }
  attr {
    key: "value"
    value {
      tensor {
        dtype: DT_INT32
        tensor_shape {
          dim {
            size: 4
          }
        }
        tensor_content: "\003\000\000\000\003\000\000\000@\000\000\000\001\000\000\000"
      }
    }
  }
}
node {
  name: "conv2/dw/random_uniform/min"
  op: "Const"
  attr {
    key: "dtype"
    value {
      type: DT_FLOAT
    }
  }
  attr {
    key: "value"
    value {
      tensor {
        dtype: DT_FLOAT
        tensor_shape {
        }
        float_val: -0.10127393901348114
      }
    }
  }
}
node {
  name: "conv2/dw/random_uniform/max"
  op: "Const"
  attr {
    key: "dtype"
    value {
      type: DT_FLOAT
    }
  }
  attr {
    key: "value"
    value {
      tensor {
        dtype: DT_FLOAT
        tensor_shape {
        }
        float_val: 0.10127393901348114
      }
    }
  }
}
node {
  name: "conv2/dw/random_uniform/RandomUniform"
  op: "RandomUniform"
  input: "conv2/dw/random_uniform/shape"
  attr {
    key: "T"
    value {
      type: DT_INT32
    }
  }
  attr {
    key: "dtype"
    value {
      type: DT_FLOAT
    }
  }
  attr {
    key: "seed"
    value {
      i: 87654321
    }
  }
  attr {
    key: "seed2"
    value {
      i: 5651243
    }
  }
}
node {
  name: "conv2/dw/random_uniform/sub"
  op: "Sub"
  input: "conv2/dw/random_uniform/max"
  input: "conv2/dw/random_uniform/min"
  attr {
    key: "T"
    value {
      type: DT_FLOAT
    }
  }
}
node {
  name: "conv2/dw/random_uniform/mul"
  op: "Mul"
  input: "conv2/dw/random_uniform/RandomUniform"
  input: "conv2/dw/random_uniform/sub"
  attr {
    key: "T"
    value {
      type: DT_FLOAT
    }
  }
}
node {
  name: "conv2/dw/random_uniform"
  op: "Add"
  input: "conv2/dw/random_uniform/mul"
  input: "conv2/dw/random_uniform/min"
  attr {
    key: "T"
    value {
      type: DT_FLOAT
    }
  }
}
node {
  name: "conv2/dw/depthwise_kernel"
  op: "VariableV2"
  attr {
    key: "container"
    value {
      s: ""
    }
  }
  attr {
    key: "dtype"
    value {
      type: DT_FLOAT
    }
  }
  attr {
    key: "shape"
    value {
      shape {
        dim {
          size: 3
        }
        dim {
          size: 3
        }
        dim {
          size: 64
        }
        dim {
          size: 1
        }
      }
    }
  }
  attr {
    key: "shared_name"
    value {
      s: ""
    }
  }
}
node {
  name: "conv2/dw/depthwise_kernel/Assign"
  op: "Assign"
  input: "conv2/dw/depthwise_kernel"
  input: "conv2/dw/random_uniform"
  attr {
    key: "T"
    value {
      type: DT_FLOAT
    }
  }
  attr {
    key: "_class"
    value {
      list {
        s: "loc:@conv2/dw/depthwise_kernel"
      }
    }
  }
  attr {
    key: "use_locking"
    value {
      b: true
    }
  }
  attr {
    key: "validate_shape"
    value {
      b: true
    }
  }
}
node {
  name: "conv2/dw/depthwise_kernel/read"
  op: "Identity"
  input: "conv2/dw/depthwise_kernel"
  attr {
    key: "T"
    value {
      type: DT_FLOAT
    }
  }
  attr {
    key: "_class"
    value {
      list {
        s: "loc:@conv2/dw/depthwise_kernel"
      }
    }
  }
}
node {
  name: "conv2/dw/depthwise/Shape"
  op: "Const"
  attr {
    key: "dtype"
    value {
      type: DT_INT32
    }
  }
  attr {
    key: "value"
    value {
      tensor {
        dtype: DT_INT32
        tensor_shape {
          dim {
            size: 4
          }
        }
        tensor_content: "\003\000\000\000\003\000\000\000@\000\000\000\001\000\000\000"
      }
    }
  }
}
node {
  name: "conv2/dw/depthwise/dilation_rate"
  op: "Const"
  attr {
    key: "dtype"
    value {
      type: DT_INT32
    }
  }
  attr {
    key: "value"
    value {
      tensor {
        dtype: DT_INT32
        tensor_shape {
          dim {
            size: 2
          }
        }
        tensor_content: "\001\000\000\000\001\000\000\000"
      }
    }
  }
}
node {
  name: "conv2/dw/depthwise"
  op: "DepthwiseConv2dNative"
  input: "conv2_padding/Pad"
  input: "conv2/dw/depthwise_kernel/read"
  attr {
    key: "T"
    value {
      type: DT_FLOAT
    }
  }
  attr {
    key: "data_format"
    value {
      s: "NHWC"
    }
  }
  attr {
    key: "dilations"
    value {
      list {
        i: 1
        i: 1
        i: 1
        i: 1
      }
    }
  }
  attr {
    key: "padding"
    value {
      s: "VALID"
    }
  }
  attr {
    key: "strides"
    value {
      list {
        i: 1
        i: 2
        i: 2
        i: 1
      }
    }
  }
}
node {
  name: "conv2/dw/bn/Const"
  op: "Const"
  attr {
    key: "dtype"
    value {
      type: DT_FLOAT
    }
  }
  attr {
    key: "value"
    value {
      tensor {
        dtype: DT_FLOAT
        tensor_shape {
          dim {
            size: 64
          }
        }
        float_val: 1.0
      }
    }
  }
}
node {
  name: "conv2/dw/bn/gamma"
  op: "VariableV2"
  attr {
    key: "container"
    value {
      s: ""
    }
  }
  attr {
    key: "dtype"
    value {
      type: DT_FLOAT
    }
  }
  attr {
    key: "shape"
    value {
      shape {
        dim {
          size: 64
        }
      }
    }
  }
  attr {
    key: "shared_name"
    value {
      s: ""
    }
  }
}
node {
  name: "conv2/dw/bn/gamma/Assign"
  op: "Assign"
  input: "conv2/dw/bn/gamma"
  input: "conv2/dw/bn/Const"
  attr {
    key: "T"
    value {
      type: DT_FLOAT
    }
  }
  attr {
    key: "_class"
    value {
      list {
        s: "loc:@conv2/dw/bn/gamma"
      }
    }
  }
  attr {
    key: "use_locking"
    value {
      b: true
    }
  }
  attr {
    key: "validate_shape"
    value {
      b: true
    }
  }
}
node {
  name: "conv2/dw/bn/gamma/read"
  op: "Identity"
  input: "conv2/dw/bn/gamma"
  attr {
    key: "T"
    value {
      type: DT_FLOAT
    }
  }
  attr {
    key: "_class"
    value {
      list {
        s: "loc:@conv2/dw/bn/gamma"
      }
    }
  }
}
node {
  name: "conv2/dw/bn/Const_1"
  op: "Const"
  attr {
    key: "dtype"
    value {
      type: DT_FLOAT
    }
  }
  attr {
    key: "value"
    value {
      tensor {
        dtype: DT_FLOAT
        tensor_shape {
          dim {
            size: 64
          }
        }
        float_val: 0.0
      }
    }
  }
}
node {
  name: "conv2/dw/bn/beta"
  op: "VariableV2"
  attr {
    key: "container"
    value {
      s: ""
    }
  }
  attr {
    key: "dtype"
    value {
      type: DT_FLOAT
    }
  }
  attr {
    key: "shape"
    value {
      shape {
        dim {
          size: 64
        }
      }
    }
  }
  attr {
    key: "shared_name"
    value {
      s: ""
    }
  }
}
node {
  name: "conv2/dw/bn/beta/Assign"
  op: "Assign"
  input: "conv2/dw/bn/beta"
  input: "conv2/dw/bn/Const_1"
  attr {
    key: "T"
    value {
      type: DT_FLOAT
    }
  }
  attr {
    key: "_class"
    value {
      list {
        s: "loc:@conv2/dw/bn/beta"
      }
    }
  }
  attr {
    key: "use_locking"
    value {
      b: true
    }
  }
  attr {
    key: "validate_shape"
    value {
      b: true
    }
  }
}
node {
  name: "conv2/dw/bn/beta/read"
  op: "Identity"
  input: "conv2/dw/bn/beta"
  attr {
    key: "T"
    value {
      type: DT_FLOAT
    }
  }
  attr {
    key: "_class"
    value {
      list {
        s: "loc:@conv2/dw/bn/beta"
      }
    }
  }
}
node {
  name: "conv2/dw/bn/Const_2"
  op: "Const"
  attr {
    key: "dtype"
    value {
      type: DT_FLOAT
    }
  }
  attr {
    key: "value"
    value {
      tensor {
        dtype: DT_FLOAT
        tensor_shape {
          dim {
            size: 64
          }
        }
        float_val: 0.0
      }
    }
  }
}
node {
  name: "conv2/dw/bn/moving_mean"
  op: "VariableV2"
  attr {
    key: "container"
    value {
      s: ""
    }
  }
  attr {
    key: "dtype"
    value {
      type: DT_FLOAT
    }
  }
  attr {
    key: "shape"
    value {
      shape {
        dim {
          size: 64
        }
      }
    }
  }
  attr {
    key: "shared_name"
    value {
      s: ""
    }
  }
}
node {
  name: "conv2/dw/bn/moving_mean/Assign"
  op: "Assign"
  input: "conv2/dw/bn/moving_mean"
  input: "conv2/dw/bn/Const_2"
  attr {
    key: "T"
    value {
      type: DT_FLOAT
    }
  }
  attr {
    key: "_class"
    value {
      list {
        s: "loc:@conv2/dw/bn/moving_mean"
      }
    }
  }
  attr {
    key: "use_locking"
    value {
      b: true
    }
  }
  attr {
    key: "validate_shape"
    value {
      b: true
    }
  }
}
node {
  name: "conv2/dw/bn/moving_mean/read"
  op: "Identity"
  input: "conv2/dw/bn/moving_mean"
  attr {
    key: "T"
    value {
      type: DT_FLOAT
    }
  }
  attr {
    key: "_class"
    value {
      list {
        s: "loc:@conv2/dw/bn/moving_mean"
      }
    }
  }
}
node {
  name: "conv2/dw/bn/Const_3"
  op: "Const"
  attr {
    key: "dtype"
    value {
      type: DT_FLOAT
    }
  }
  attr {
    key: "value"
    value {
      tensor {
        dtype: DT_FLOAT
        tensor_shape {
          dim {
            size: 64
          }
        }
        float_val: 1.0
      }
    }
  }
}
node {
  name: "conv2/dw/bn/moving_variance"
  op: "VariableV2"
  attr {
    key: "container"
    value {
      s: ""
    }
  }
  attr {
    key: "dtype"
    value {
      type: DT_FLOAT
    }
  }
  attr {
    key: "shape"
    value {
      shape {
        dim {
          size: 64
        }
      }
    }
  }
  attr {
    key: "shared_name"
    value {
      s: ""
    }
  }
}
node {
  name: "conv2/dw/bn/moving_variance/Assign"
  op: "Assign"
  input: "conv2/dw/bn/moving_variance"
  input: "conv2/dw/bn/Const_3"
  attr {
    key: "T"
    value {
      type: DT_FLOAT
    }
  }
  attr {
    key: "_class"
    value {
      list {
        s: "loc:@conv2/dw/bn/moving_variance"
      }
    }
  }
  attr {
    key: "use_locking"
    value {
      b: true
    }
  }
  attr {
    key: "validate_shape"
    value {
      b: true
    }
  }
}
node {
  name: "conv2/dw/bn/moving_variance/read"
  op: "Identity"
  input: "conv2/dw/bn/moving_variance"
  attr {
    key: "T"
    value {
      type: DT_FLOAT
    }
  }
  attr {
    key: "_class"
    value {
      list {
        s: "loc:@conv2/dw/bn/moving_variance"
      }
    }
  }
}
node {
  name: "conv2/dw/bn/Const_4"
  op: "Const"
  attr {
    key: "dtype"
    value {
      type: DT_FLOAT
    }
  }
  attr {
    key: "value"
    value {
      tensor {
        dtype: DT_FLOAT
        tensor_shape {
          dim {
          }
        }
      }
    }
  }
}
node {
  name: "conv2/dw/bn/Const_5"
  op: "Const"
  attr {
    key: "dtype"
    value {
      type: DT_FLOAT
    }
  }
  attr {
    key: "value"
    value {
      tensor {
        dtype: DT_FLOAT
        tensor_shape {
          dim {
          }
        }
      }
    }
  }
}
node {
  name: "conv2/dw/bn/FusedBatchNorm"
  op: "FusedBatchNorm"
  input: "conv2/dw/depthwise"
  input: "conv2/dw/bn/gamma/read"
  input: "conv2/dw/bn/beta/read"
  input: "conv2/dw/bn/Const_4"
  input: "conv2/dw/bn/Const_5"
  attr {
    key: "T"
    value {
      type: DT_FLOAT
    }
  }
  attr {
    key: "data_format"
    value {
      s: "NHWC"
    }
  }
  attr {
    key: "epsilon"
    value {
      f: 1.0009999641624745e-05
    }
  }
  attr {
    key: "is_training"
    value {
      b: true
    }
  }
}
node {
  name: "conv2/dw/bn/Shape"
  op: "Shape"
  input: "conv2/dw/depthwise"
  attr {
    key: "T"
    value {
      type: DT_FLOAT
    }
  }
  attr {
    key: "out_type"
    value {
      type: DT_INT32
    }
  }
}
node {
  name: "conv2/dw/bn/strided_slice/stack"
  op: "Const"
  attr {
    key: "dtype"
    value {
      type: DT_INT32
    }
  }
  attr {
    key: "value"
    value {
      tensor {
        dtype: DT_INT32
        tensor_shape {
          dim {
            size: 1
          }
        }
        int_val: 0
      }
    }
  }
}
node {
  name: "conv2/dw/bn/strided_slice/stack_1"
  op: "Const"
  attr {
    key: "dtype"
    value {
      type: DT_INT32
    }
  }
  attr {
    key: "value"
    value {
      tensor {
        dtype: DT_INT32
        tensor_shape {
          dim {
            size: 1
          }
        }
        int_val: 1
      }
    }
  }
}
node {
  name: "conv2/dw/bn/strided_slice/stack_2"
  op: "Const"
  attr {
    key: "dtype"
    value {
      type: DT_INT32
    }
  }
  attr {
    key: "value"
    value {
      tensor {
        dtype: DT_INT32
        tensor_shape {
          dim {
            size: 1
          }
        }
        int_val: 1
      }
    }
  }
}
node {
  name: "conv2/dw/bn/strided_slice"
  op: "StridedSlice"
  input: "conv2/dw/bn/Shape"
  input: "conv2/dw/bn/strided_slice/stack"
  input: "conv2/dw/bn/strided_slice/stack_1"
  input: "conv2/dw/bn/strided_slice/stack_2"
  attr {
    key: "Index"
    value {
      type: DT_INT32
    }
  }
  attr {
    key: "T"
    value {
      type: DT_INT32
    }
  }
  attr {
    key: "begin_mask"
    value {
      i: 0
    }
  }
  attr {
    key: "ellipsis_mask"
    value {
      i: 0
    }
  }
  attr {
    key: "end_mask"
    value {
      i: 0
    }
  }
  attr {
    key: "new_axis_mask"
    value {
      i: 0
    }
  }
  attr {
    key: "shrink_axis_mask"
    value {
      i: 1
    }
  }
}
node {
  name: "conv2/dw/bn/Shape_1"
  op: "Shape"
  input: "conv2/dw/depthwise"
  attr {
    key: "T"
    value {
      type: DT_FLOAT
    }
  }
  attr {
    key: "out_type"
    value {
      type: DT_INT32
    }
  }
}
node {
  name: "conv2/dw/bn/strided_slice_1/stack"
  op: "Const"
  attr {
    key: "dtype"
    value {
      type: DT_INT32
    }
  }
  attr {
    key: "value"
    value {
      tensor {
        dtype: DT_INT32
        tensor_shape {
          dim {
            size: 1
          }
        }
        int_val: 1
      }
    }
  }
}
node {
  name: "conv2/dw/bn/strided_slice_1/stack_1"
  op: "Const"
  attr {
    key: "dtype"
    value {
      type: DT_INT32
    }
  }
  attr {
    key: "value"
    value {
      tensor {
        dtype: DT_INT32
        tensor_shape {
          dim {
            size: 1
          }
        }
        int_val: 2
      }
    }
  }
}
node {
  name: "conv2/dw/bn/strided_slice_1/stack_2"
  op: "Const"
  attr {
    key: "dtype"
    value {
      type: DT_INT32
    }
  }
  attr {
    key: "value"
    value {
      tensor {
        dtype: DT_INT32
        tensor_shape {
          dim {
            size: 1
          }
        }
        int_val: 1
      }
    }
  }
}
node {
  name: "conv2/dw/bn/strided_slice_1"
  op: "StridedSlice"
  input: "conv2/dw/bn/Shape_1"
  input: "conv2/dw/bn/strided_slice_1/stack"
  input: "conv2/dw/bn/strided_slice_1/stack_1"
  input: "conv2/dw/bn/strided_slice_1/stack_2"
  attr {
    key: "Index"
    value {
      type: DT_INT32
    }
  }
  attr {
    key: "T"
    value {
      type: DT_INT32
    }
  }
  attr {
    key: "begin_mask"
    value {
      i: 0
    }
  }
  attr {
    key: "ellipsis_mask"
    value {
      i: 0
    }
  }
  attr {
    key: "end_mask"
    value {
      i: 0
    }
  }
  attr {
    key: "new_axis_mask"
    value {
      i: 0
    }
  }
  attr {
    key: "shrink_axis_mask"
    value {
      i: 1
    }
  }
}
node {
  name: "conv2/dw/bn/Shape_2"
  op: "Shape"
  input: "conv2/dw/depthwise"
  attr {
    key: "T"
    value {
      type: DT_FLOAT
    }
  }
  attr {
    key: "out_type"
    value {
      type: DT_INT32
    }
  }
}
node {
  name: "conv2/dw/bn/strided_slice_2/stack"
  op: "Const"
  attr {
    key: "dtype"
    value {
      type: DT_INT32
    }
  }
  attr {
    key: "value"
    value {
      tensor {
        dtype: DT_INT32
        tensor_shape {
          dim {
            size: 1
          }
        }
        int_val: 2
      }
    }
  }
}
node {
  name: "conv2/dw/bn/strided_slice_2/stack_1"
  op: "Const"
  attr {
    key: "dtype"
    value {
      type: DT_INT32
    }
  }
  attr {
    key: "value"
    value {
      tensor {
        dtype: DT_INT32
        tensor_shape {
          dim {
            size: 1
          }
        }
        int_val: 3
      }
    }
  }
}
node {
  name: "conv2/dw/bn/strided_slice_2/stack_2"
  op: "Const"
  attr {
    key: "dtype"
    value {
      type: DT_INT32
    }
  }
  attr {
    key: "value"
    value {
      tensor {
        dtype: DT_INT32
        tensor_shape {
          dim {
            size: 1
          }
        }
        int_val: 1
      }
    }
  }
}
node {
  name: "conv2/dw/bn/strided_slice_2"
  op: "StridedSlice"
  input: "conv2/dw/bn/Shape_2"
  input: "conv2/dw/bn/strided_slice_2/stack"
  input: "conv2/dw/bn/strided_slice_2/stack_1"
  input: "conv2/dw/bn/strided_slice_2/stack_2"
  attr {
    key: "Index"
    value {
      type: DT_INT32
    }
  }
  attr {
    key: "T"
    value {
      type: DT_INT32
    }
  }
  attr {
    key: "begin_mask"
    value {
      i: 0
    }
  }
  attr {
    key: "ellipsis_mask"
    value {
      i: 0
    }
  }
  attr {
    key: "end_mask"
    value {
      i: 0
    }
  }
  attr {
    key: "new_axis_mask"
    value {
      i: 0
    }
  }
  attr {
    key: "shrink_axis_mask"
    value {
      i: 1
    }
  }
}
node {
  name: "conv2/dw/bn/Rank/packed"
  op: "Pack"
  input: "conv2/dw/bn/strided_slice"
  input: "conv2/dw/bn/strided_slice_1"
  input: "conv2/dw/bn/strided_slice_2"
  attr {
    key: "N"
    value {
      i: 3
    }
  }
  attr {
    key: "T"
    value {
      type: DT_INT32
    }
  }
  attr {
    key: "axis"
    value {
      i: 0
    }
  }
}
node {
  name: "conv2/dw/bn/Rank"
  op: "Const"
  attr {
    key: "dtype"
    value {
      type: DT_INT32
    }
  }
  attr {
    key: "value"
    value {
      tensor {
        dtype: DT_INT32
        tensor_shape {
        }
        int_val: 1
      }
    }
  }
}
node {
  name: "conv2/dw/bn/range/start"
  op: "Const"
  attr {
    key: "dtype"
    value {
      type: DT_INT32
    }
  }
  attr {
    key: "value"
    value {
      tensor {
        dtype: DT_INT32
        tensor_shape {
        }
        int_val: 0
      }
    }
  }
}
node {
  name: "conv2/dw/bn/range/delta"
  op: "Const"
  attr {
    key: "dtype"
    value {
      type: DT_INT32
    }
  }
  attr {
    key: "value"
    value {
      tensor {
        dtype: DT_INT32
        tensor_shape {
        }
        int_val: 1
      }
    }
  }
}
node {
  name: "conv2/dw/bn/range"
  op: "Range"
  input: "conv2/dw/bn/range/start"
  input: "conv2/dw/bn/Rank"
  input: "conv2/dw/bn/range/delta"
  attr {
    key: "Tidx"
    value {
      type: DT_INT32
    }
  }
}
node {
  name: "conv2/dw/bn/Prod/input"
  op: "Pack"
  input: "conv2/dw/bn/strided_slice"
  input: "conv2/dw/bn/strided_slice_1"
  input: "conv2/dw/bn/strided_slice_2"
  attr {
    key: "N"
    value {
      i: 3
    }
  }
  attr {
    key: "T"
    value {
      type: DT_INT32
    }
  }
  attr {
    key: "axis"
    value {
      i: 0
    }
  }
}
node {
  name: "conv2/dw/bn/Prod"
  op: "Prod"
  input: "conv2/dw/bn/Prod/input"
  input: "conv2/dw/bn/range"
  attr {
    key: "T"
    value {
      type: DT_INT32
    }
  }
  attr {
    key: "Tidx"
    value {
      type: DT_INT32
    }
  }
  attr {
    key: "keep_dims"
    value {
      b: false
    }
  }
}
node {
  name: "conv2/dw/bn/Cast"
  op: "Cast"
  input: "conv2/dw/bn/Prod"
  attr {
    key: "DstT"
    value {
      type: DT_FLOAT
    }
  }
  attr {
    key: "SrcT"
    value {
      type: DT_INT32
    }
  }
}
node {
  name: "conv2/dw/bn/sub/y"
  op: "Const"
  attr {
    key: "dtype"
    value {
      type: DT_FLOAT
    }
  }
  attr {
    key: "value"
    value {
      tensor {
        dtype: DT_FLOAT
        tensor_shape {
        }
        float_val: 1.0000100135803223
      }
    }
  }
}
node {
  name: "conv2/dw/bn/sub"
  op: "Sub"
  input: "conv2/dw/bn/Cast"
  input: "conv2/dw/bn/sub/y"
  attr {
    key: "T"
    value {
      type: DT_FLOAT
    }
  }
}
node {
  name: "conv2/dw/bn/truediv"
  op: "RealDiv"
  input: "conv2/dw/bn/Cast"
  input: "conv2/dw/bn/sub"
  attr {
    key: "T"
    value {
      type: DT_FLOAT
    }
  }
}
node {
  name: "conv2/dw/bn/mul"
  op: "Mul"
  input: "conv2/dw/bn/FusedBatchNorm:2"
  input: "conv2/dw/bn/truediv"
  attr {
    key: "T"
    value {
      type: DT_FLOAT
    }
  }
}
node {
  name: "conv2/dw/bn/AssignMovingAvg/decay"
  op: "Const"
  attr {
    key: "_class"
    value {
      list {
        s: "loc:@conv2/dw/bn/moving_mean"
      }
    }
  }
  attr {
    key: "dtype"
    value {
      type: DT_FLOAT
    }
  }
  attr {
    key: "value"
    value {
      tensor {
        dtype: DT_FLOAT
        tensor_shape {
        }
        float_val: 0.009999999776482582
      }
    }
  }
}
node {
…
    key: "dtype"
    value {
      type: DT_FLOAT
    }
  }
}
node {
  name: "IsVariableInitialized_610"
  op: "IsVariableInitialized"
  input: "conv15_2/bn_1/moving_mean/local_step"
  attr {
    key: "_class"
    value {
      list {
        s: "loc:@conv15_2/bn_1/moving_mean"
      }
    }
  }
  attr {
    key: "dtype"
    value {
      type: DT_FLOAT
    }
  }
}
node {
  name: "IsVariableInitialized_611"
  op: "IsVariableInitialized"
  input: "conv15_2/bn_1/moving_variance/biased"
  attr {
    key: "_class"
    value {
      list {
        s: "loc:@conv15_2/bn_1/moving_variance"
      }
    }
  }
  attr {
    key: "dtype"
    value {
      type: DT_FLOAT
    }
  }
}
node {
  name: "IsVariableInitialized_612"
  op: "IsVariableInitialized"
  input: "conv15_2/bn_1/moving_variance/local_step"
  attr {
    key: "_class"
    value {
      list {
        s: "loc:@conv15_2/bn_1/moving_variance"
      }
    }
  }
  attr {
    key: "dtype"
    value {
      type: DT_FLOAT
    }
  }
}
node {
  name: "IsVariableInitialized_613"
  op: "IsVariableInitialized"
  input: "conv16_1_1/kernel"
  attr {
    key: "_class"
    value {
      list {
        s: "loc:@conv16_1_1/kernel"
      }
    }
  }
  attr {
    key: "dtype"
    value {
      type: DT_FLOAT
    }
  }
}
node {
  name: "IsVariableInitialized_614"
  op: "IsVariableInitialized"
  input: "conv16_1/bn_1/gamma"
  attr {
    key: "_class"
    value {
      list {
        s: "loc:@conv16_1/bn_1/gamma"
      }
    }
  }
  attr {
    key: "dtype"
    value {
      type: DT_FLOAT
    }
  }
}
node {
  name: "IsVariableInitialized_615"
  op: "IsVariableInitialized"
  input: "conv16_1/bn_1/beta"
  attr {
    key: "_class"
    value {
      list {
        s: "loc:@conv16_1/bn_1/beta"
      }
    }
  }
  attr {
    key: "dtype"
    value {
      type: DT_FLOAT
    }
  }
}
node {
  name: "IsVariableInitialized_616"
  op: "IsVariableInitialized"
  input: "conv16_1/bn_1/moving_mean"
  attr {
    key: "_class"
    value {
      list {
        s: "loc:@conv16_1/bn_1/moving_mean"
      }
    }
  }
  attr {
    key: "dtype"
    value {
      type: DT_FLOAT
    }
  }
}
node {
  name: "IsVariableInitialized_617"
  op: "IsVariableInitialized"
  input: "conv16_1/bn_1/moving_variance"
  attr {
    key: "_class"
    value {
      list {
        s: "loc:@conv16_1/bn_1/moving_variance"
      }
    }
  }
  attr {
    key: "dtype"
    value {
      type: DT_FLOAT
    }
  }
}
node {
  name: "IsVariableInitialized_618"
  op: "IsVariableInitialized"
  input: "conv16_1/bn_1/moving_mean/biased"
  attr {
    key: "_class"
    value {
      list {
        s: "loc:@conv16_1/bn_1/moving_mean"
      }
    }
  }
  attr {
    key: "dtype"
    value {
      type: DT_FLOAT
    }
  }
}
node {
  name: "IsVariableInitialized_619"
  op: "IsVariableInitialized"
  input: "conv16_1/bn_1/moving_mean/local_step"
  attr {
    key: "_class"
    value {
      list {
        s: "loc:@conv16_1/bn_1/moving_mean"
      }
    }
  }
  attr {
    key: "dtype"
    value {
      type: DT_FLOAT
    }
  }
}
node {
  name: "IsVariableInitialized_620"
  op: "IsVariableInitialized"
  input: "conv16_1/bn_1/moving_variance/biased"
  attr {
    key: "_class"
    value {
      list {
        s: "loc:@conv16_1/bn_1/moving_variance"
      }
    }
  }
  attr {
    key: "dtype"
    value {
      type: DT_FLOAT
    }
  }
}
node {
  name: "IsVariableInitialized_621"
  op: "IsVariableInitialized"
  input: "conv16_1/bn_1/moving_variance/local_step"
  attr {
    key: "_class"
    value {
      list {
        s: "loc:@conv16_1/bn_1/moving_variance"
      }
    }
  }
  attr {
    key: "dtype"
    value {
      type: DT_FLOAT
    }
  }
}
node {
  name: "IsVariableInitialized_622"
  op: "IsVariableInitialized"
  input: "conv16_2_1/kernel"
  attr {
    key: "_class"
    value {
      list {
        s: "loc:@conv16_2_1/kernel"
      }
    }
  }
  attr {
    key: "dtype"
    value {
      type: DT_FLOAT
    }
  }
}
node {
  name: "IsVariableInitialized_623"
  op: "IsVariableInitialized"
  input: "conv16_2/bn_1/gamma"
  attr {
    key: "_class"
    value {
      list {
        s: "loc:@conv16_2/bn_1/gamma"
      }
    }
  }
  attr {
    key: "dtype"
    value {
      type: DT_FLOAT
    }
  }
}
node {
  name: "IsVariableInitialized_624"
  op: "IsVariableInitialized"
  input: "conv16_2/bn_1/beta"
  attr {
    key: "_class"
    value {
      list {
        s: "loc:@conv16_2/bn_1/beta"
      }
    }
  }
  attr {
    key: "dtype"
    value {
      type: DT_FLOAT
    }
  }
}
node {
  name: "IsVariableInitialized_625"
  op: "IsVariableInitialized"
  input: "conv16_2/bn_1/moving_mean"
  attr {
    key: "_class"
    value {
      list {
        s: "loc:@conv16_2/bn_1/moving_mean"
      }
    }
  }
  attr {
    key: "dtype"
    value {
      type: DT_FLOAT
    }
  }
}
node {
  name: "IsVariableInitialized_626"
  op: "IsVariableInitialized"
  input: "conv16_2/bn_1/moving_variance"
  attr {
    key: "_class"
    value {
      list {
        s: "loc:@conv16_2/bn_1/moving_variance"
      }
    }
  }
  attr {
    key: "dtype"
    value {
      type: DT_FLOAT
    }
  }
}
node {
  name: "IsVariableInitialized_627"
  op: "IsVariableInitialized"
  input: "conv16_2/bn_1/moving_mean/biased"
  attr {
    key: "_class"
    value {
      list {
        s: "loc:@conv16_2/bn_1/moving_mean"
      }
    }
  }
  attr {
    key: "dtype"
    value {
      type: DT_FLOAT
    }
  }
}
node {
  name: "IsVariableInitialized_628"
  op: "IsVariableInitialized"
  input: "conv16_2/bn_1/moving_mean/local_step"
  attr {
    key: "_class"
    value {
      list {
        s: "loc:@conv16_2/bn_1/moving_mean"
      }
    }
  }
  attr {
    key: "dtype"
    value {
      type: DT_FLOAT
    }
  }
}
node {
  name: "IsVariableInitialized_629"
  op: "IsVariableInitialized"
  input: "conv16_2/bn_1/moving_variance/biased"
  attr {
    key: "_class"
    value {
      list {
        s: "loc:@conv16_2/bn_1/moving_variance"
      }
    }
  }
  attr {
    key: "dtype"
    value {
      type: DT_FLOAT
    }
  }
}
node {
  name: "IsVariableInitialized_630"
  op: "IsVariableInitialized"
  input: "conv16_2/bn_1/moving_variance/local_step"
  attr {
    key: "_class"
    value {
      list {
        s: "loc:@conv16_2/bn_1/moving_variance"
      }
    }
  }
  attr {
    key: "dtype"
    value {
      type: DT_FLOAT
    }
  }
}
node {
  name: "IsVariableInitialized_631"
  op: "IsVariableInitialized"
  input: "conv17_1_1/kernel"
  attr {
    key: "_class"
    value {
      list {
        s: "loc:@conv17_1_1/kernel"
      }
    }
  }
  attr {
    key: "dtype"
    value {
      type: DT_FLOAT
    }
  }
}
node {
  name: "IsVariableInitialized_632"
  op: "IsVariableInitialized"
  input: "conv17_1/bn_1/gamma"
  attr {
    key: "_class"
    value {
      list {
        s: "loc:@conv17_1/bn_1/gamma"
      }
    }
  }
  attr {
    key: "dtype"
    value {
      type: DT_FLOAT
    }
  }
}
node {
  name: "IsVariableInitialized_633"
  op: "IsVariableInitialized"
  input: "conv17_1/bn_1/beta"
  attr {
    key: "_class"
    value {
      list {
        s: "loc:@conv17_1/bn_1/beta"
      }
    }
  }
  attr {
    key: "dtype"
    value {
      type: DT_FLOAT
    }
  }
}
node {
  name: "IsVariableInitialized_634"
  op: "IsVariableInitialized"
  input: "conv17_1/bn_1/moving_mean"
  attr {
    key: "_class"
    value {
      list {
        s: "loc:@conv17_1/bn_1/moving_mean"
      }
    }
  }
  attr {
    key: "dtype"
    value {
      type: DT_FLOAT
    }
  }
}
node {
  name: "IsVariableInitialized_635"
  op: "IsVariableInitialized"
  input: "conv17_1/bn_1/moving_variance"
  attr {
    key: "_class"
    value {
      list {
        s: "loc:@conv17_1/bn_1/moving_variance"
      }
    }
  }
  attr {
    key: "dtype"
    value {
      type: DT_FLOAT
    }
  }
}
node {
  name: "IsVariableInitialized_636"
  op: "IsVariableInitialized"
  input: "conv17_1/bn_1/moving_mean/biased"
  attr {
    key: "_class"
    value {
      list {
        s: "loc:@conv17_1/bn_1/moving_mean"
      }
    }
  }
  attr {
    key: "dtype"
    value {
      type: DT_FLOAT
    }
  }
}
node {
  name: "IsVariableInitialized_637"
  op: "IsVariableInitialized"
  input: "conv17_1/bn_1/moving_mean/local_step"
  attr {
    key: "_class"
    value {
      list {
        s: "loc:@conv17_1/bn_1/moving_mean"
      }
    }
  }
  attr {
    key: "dtype"
    value {
      type: DT_FLOAT
    }
  }
}
node {
  name: "IsVariableInitialized_638"
  op: "IsVariableInitialized"
  input: "conv17_1/bn_1/moving_variance/biased"
  attr {
    key: "_class"
    value {
      list {
        s: "loc:@conv17_1/bn_1/moving_variance"
      }
    }
  }
  attr {
    key: "dtype"
    value {
      type: DT_FLOAT
    }
  }
}
node {
  name: "IsVariableInitialized_639"
  op: "IsVariableInitialized"
  input: "conv17_1/bn_1/moving_variance/local_step"
  attr {
    key: "_class"
    value {
      list {
        s: "loc:@conv17_1/bn_1/moving_variance"
      }
    }
  }
  attr {
    key: "dtype"
    value {
      type: DT_FLOAT
    }
  }
}
node {
  name: "IsVariableInitialized_640"
  op: "IsVariableInitialized"
  input: "conv17_2_1/kernel"
  attr {
    key: "_class"
    value {
      list {
        s: "loc:@conv17_2_1/kernel"
      }
    }
  }
  attr {
    key: "dtype"
    value {
      type: DT_FLOAT
    }
  }
}
node {
  name: "IsVariableInitialized_641"
  op: "IsVariableInitialized"
  input: "conv17_2/bn_1/gamma"
  attr {
    key: "_class"
    value {
      list {
        s: "loc:@conv17_2/bn_1/gamma"
      }
    }
  }
  attr {
    key: "dtype"
    value {
      type: DT_FLOAT
    }
  }
}
node {
  name: "IsVariableInitialized_642"
  op: "IsVariableInitialized"
  input: "conv17_2/bn_1/beta"
  attr {
    key: "_class"
    value {
      list {
        s: "loc:@conv17_2/bn_1/beta"
      }
    }
  }
  attr {
    key: "dtype"
    value {
      type: DT_FLOAT
    }
  }
}
node {
  name: "IsVariableInitialized_643"
  op: "IsVariableInitialized"
  input: "conv17_2/bn_1/moving_mean"
  attr {
    key: "_class"
    value {
      list {
        s: "loc:@conv17_2/bn_1/moving_mean"
      }
    }
  }
  attr {
    key: "dtype"
    value {
      type: DT_FLOAT
    }
  }
}
node {
  name: "IsVariableInitialized_644"
  op: "IsVariableInitialized"
  input: "conv17_2/bn_1/moving_variance"
  attr {
    key: "_class"
    value {
      list {
        s: "loc:@conv17_2/bn_1/moving_variance"
      }
    }
  }
  attr {
    key: "dtype"
    value {
      type: DT_FLOAT
    }
  }
}
node {
  name: "IsVariableInitialized_645"
  op: "IsVariableInitialized"
  input: "conv17_2/bn_1/moving_mean/biased"
  attr {
    key: "_class"
    value {
      list {
        s: "loc:@conv17_2/bn_1/moving_mean"
      }
    }
  }
  attr {
    key: "dtype"
    value {
      type: DT_FLOAT
    }
  }
}
node {
  name: "IsVariableInitialized_646"
  op: "IsVariableInitialized"
  input: "conv17_2/bn_1/moving_mean/local_step"
  attr {
    key: "_class"
    value {
      list {
        s: "loc:@conv17_2/bn_1/moving_mean"
      }
    }
  }
  attr {
    key: "dtype"
    value {
      type: DT_FLOAT
    }
  }
}
node {
  name: "IsVariableInitialized_647"
  op: "IsVariableInitialized"
  input: "conv17_2/bn_1/moving_variance/biased"
  attr {
    key: "_class"
    value {
      list {
        s: "loc:@conv17_2/bn_1/moving_variance"
      }
    }
  }
  attr {
    key: "dtype"
    value {
      type: DT_FLOAT
    }
  }
}
node {
  name: "IsVariableInitialized_648"
  op: "IsVariableInitialized"
  input: "conv17_2/bn_1/moving_variance/local_step"
  attr {
    key: "_class"
    value {
      list {
        s: "loc:@conv17_2/bn_1/moving_variance"
      }
    }
  }
  attr {
    key: "dtype"
    value {
      type: DT_FLOAT
    }
  }
}
node {
  name: "IsVariableInitialized_649"
  op: "IsVariableInitialized"
  input: "conv11_mbox_conf_1/kernel"
  attr {
    key: "_class"
    value {
      list {
        s: "loc:@conv11_mbox_conf_1/kernel"
      }
    }
  }
  attr {
    key: "dtype"
    value {
      type: DT_FLOAT
    }
  }
}
node {
  name: "IsVariableInitialized_650"
  op: "IsVariableInitialized"
  input: "conv11_mbox_conf_1/bias"
  attr {
    key: "_class"
    value {
      list {
        s: "loc:@conv11_mbox_conf_1/bias"
      }
    }
  }
  attr {
    key: "dtype"
    value {
      type: DT_FLOAT
    }
  }
}
node {
  name: "IsVariableInitialized_651"
  op: "IsVariableInitialized"
  input: "conv13_mbox_conf_1/kernel"
  attr {
    key: "_class"
    value {
      list {
        s: "loc:@conv13_mbox_conf_1/kernel"
      }
    }
  }
  attr {
    key: "dtype"
    value {
      type: DT_FLOAT
    }
  }
}
node {
  name: "IsVariableInitialized_652"
  op: "IsVariableInitialized"
  input: "conv13_mbox_conf_1/bias"
  attr {
    key: "_class"
    value {
      list {
        s: "loc:@conv13_mbox_conf_1/bias"
      }
    }
  }
  attr {
    key: "dtype"
    value {
      type: DT_FLOAT
    }
  }
}
node {
  name: "IsVariableInitialized_653"
  op: "IsVariableInitialized"
  input: "conv14_2_mbox_conf_1/kernel"
  attr {
    key: "_class"
    value {
      list {
        s: "loc:@conv14_2_mbox_conf_1/kernel"
      }
    }
  }
  attr {
    key: "dtype"
    value {
      type: DT_FLOAT
    }
  }
}
node {
  name: "IsVariableInitialized_654"
  op: "IsVariableInitialized"
  input: "conv14_2_mbox_conf_1/bias"
  attr {
    key: "_class"
    value {
      list {
        s: "loc:@conv14_2_mbox_conf_1/bias"
      }
    }
  }
  attr {
    key: "dtype"
    value {
      type: DT_FLOAT
    }
  }
}
node {
  name: "IsVariableInitialized_655"
  op: "IsVariableInitialized"
  input: "conv15_2_mbox_conf_1/kernel"
  attr {
    key: "_class"
    value {
      list {
        s: "loc:@conv15_2_mbox_conf_1/kernel"
      }
    }
  }
  attr {
    key: "dtype"
    value {
      type: DT_FLOAT
    }
  }
}
node {
  name: "IsVariableInitialized_656"
  op: "IsVariableInitialized"
  input: "conv15_2_mbox_conf_1/bias"
  attr {
    key: "_class"
    value {
      list {
        s: "loc:@conv15_2_mbox_conf_1/bias"
      }
    }
  }
  attr {
    key: "dtype"
    value {
      type: DT_FLOAT
    }
  }
}
node {
  name: "IsVariableInitialized_657"
  op: "IsVariableInitialized"
  input: "conv16_2_mbox_conf_1/kernel"
  attr {
    key: "_class"
    value {
      list {
        s: "loc:@conv16_2_mbox_conf_1/kernel"
      }
    }
  }
  attr {
    key: "dtype"
    value {
      type: DT_FLOAT
    }
  }
}
node {
  name: "IsVariableInitialized_658"
  op: "IsVariableInitialized"
  input: "conv16_2_mbox_conf_1/bias"
  attr {
    key: "_class"
    value {
      list {
        s: "loc:@conv16_2_mbox_conf_1/bias"
      }
    }
  }
  attr {
    key: "dtype"
    value {
      type: DT_FLOAT
    }
  }
}
node {
  name: "IsVariableInitialized_659"
  op: "IsVariableInitialized"
  input: "conv17_2_mbox_conf_1/kernel"
  attr {
    key: "_class"
    value {
      list {
        s: "loc:@conv17_2_mbox_conf_1/kernel"
      }
    }
  }
  attr {
    key: "dtype"
    value {
      type: DT_FLOAT
    }
  }
}
node {
  name: "IsVariableInitialized_660"
  op: "IsVariableInitialized"
  input: "conv17_2_mbox_conf_1/bias"
  attr {
    key: "_class"
    value {
      list {
        s: "loc:@conv17_2_mbox_conf_1/bias"
      }
    }
  }
  attr {
    key: "dtype"
    value {
      type: DT_FLOAT
    }
  }
}
node {
  name: "IsVariableInitialized_661"
  op: "IsVariableInitialized"
  input: "conv11_mbox_loc_1/kernel"
  attr {
    key: "_class"
    value {
      list {
        s: "loc:@conv11_mbox_loc_1/kernel"
      }
    }
  }
  attr {
    key: "dtype"
    value {
      type: DT_FLOAT
    }
  }
}
node {
  name: "IsVariableInitialized_662"
  op: "IsVariableInitialized"
  input: "conv11_mbox_loc_1/bias"
  attr {
    key: "_class"
    value {
      list {
        s: "loc:@conv11_mbox_loc_1/bias"
      }
    }
  }
  attr {
    key: "dtype"
    value {
      type: DT_FLOAT
    }
  }
}
node {
  name: "IsVariableInitialized_663"
  op: "IsVariableInitialized"
  input: "conv13_mbox_loc_1/kernel"
  attr {
    key: "_class"
    value {
      list {
        s: "loc:@conv13_mbox_loc_1/kernel"
      }
    }
  }
  attr {
    key: "dtype"
    value {
      type: DT_FLOAT
    }
  }
}
node {
  name: "IsVariableInitialized_664"
  op: "IsVariableInitialized"
  input: "conv13_mbox_loc_1/bias"
  attr {
    key: "_class"
    value {
      list {
        s: "loc:@conv13_mbox_loc_1/bias"
      }
    }
  }
  attr {
    key: "dtype"
    value {
      type: DT_FLOAT
    }
  }
}
node {
  name: "IsVariableInitialized_665"
  op: "IsVariableInitialized"
  input: "conv14_2_mbox_loc_1/kernel"
  attr {
    key: "_class"
    value {
      list {
        s: "loc:@conv14_2_mbox_loc_1/kernel"
      }
    }
  }
  attr {
    key: "dtype"
    value {
      type: DT_FLOAT
    }
  }
}
node {
  name: "IsVariableInitialized_666"
  op: "IsVariableInitialized"
  input: "conv14_2_mbox_loc_1/bias"
  attr {
    key: "_class"
    value {
      list {
        s: "loc:@conv14_2_mbox_loc_1/bias"
      }
    }
  }
  attr {
    key: "dtype"
    value {
      type: DT_FLOAT
    }
  }
}
node {
  name: "IsVariableInitialized_667"
  op: "IsVariableInitialized"
  input: "conv15_2_mbox_loc_1/kernel"
  attr {
    key: "_class"
    value {
      list {
        s: "loc:@conv15_2_mbox_loc_1/kernel"
      }
    }
  }
  attr {
    key: "dtype"
    value {
      type: DT_FLOAT
    }
  }
}
node {
  name: "IsVariableInitialized_668"
  op: "IsVariableInitialized"
  input: "conv15_2_mbox_loc_1/bias"
  attr {
    key: "_class"
    value {
      list {
        s: "loc:@conv15_2_mbox_loc_1/bias"
      }
    }
  }
  attr {
    key: "dtype"
    value {
      type: DT_FLOAT
    }
  }
}
node {
  name: "IsVariableInitialized_669"
  op: "IsVariableInitialized"
  input: "conv16_2_mbox_loc_1/kernel"
  attr {
    key: "_class"
    value {
      list {
        s: "loc:@conv16_2_mbox_loc_1/kernel"
      }
    }
  }
  attr {
    key: "dtype"
    value {
      type: DT_FLOAT
    }
  }
}
node {
  name: "IsVariableInitialized_670"
  op: "IsVariableInitialized"
  input: "conv16_2_mbox_loc_1/bias"
  attr {
    key: "_class"
    value {
      list {
        s: "loc:@conv16_2_mbox_loc_1/bias"
      }
    }
  }
  attr {
    key: "dtype"
    value {
      type: DT_FLOAT
    }
  }
}
node {
  name: "IsVariableInitialized_671"
  op: "IsVariableInitialized"
  input: "conv17_2_mbox_loc_1/kernel"
  attr {
    key: "_class"
    value {
      list {
        s: "loc:@conv17_2_mbox_loc_1/kernel"
      }
    }
  }
  attr {
    key: "dtype"
    value {
      type: DT_FLOAT
    }
  }
}
node {
  name: "IsVariableInitialized_672"
  op: "IsVariableInitialized"
  input: "conv17_2_mbox_loc_1/bias"
  attr {
    key: "_class"
    value {
      list {
        s: "loc:@conv17_2_mbox_loc_1/bias"
      }
    }
  }
  attr {
    key: "dtype"
    value {
      type: DT_FLOAT
    }
  }
}
node {
  name: "init"
  op: "NoOp"
  input: "^conv0/bn/moving_mean/biased/Assign"
  input: "^conv0/bn/moving_mean/local_step/Assign"
  input: "^conv0/bn/moving_variance/biased/Assign"
  input: "^conv0/bn/moving_variance/local_step/Assign"
  input: "^conv0/bn_1/beta/Assign"
  input: "^conv0/bn_1/gamma/Assign"
  input: "^conv0/bn_1/moving_mean/Assign"
  input: "^conv0/bn_1/moving_mean/biased/Assign"
  input: "^conv0/bn_1/moving_mean/local_step/Assign"
  input: "^conv0/bn_1/moving_variance/Assign"
  input: "^conv0/bn_1/moving_variance/biased/Assign"
  input: "^conv0/bn_1/moving_variance/local_step/Assign"
  input: "^conv0_1/kernel/Assign"
  input: "^conv1/bn/beta/Assign"
  input: "^conv1/bn/gamma/Assign"
  input: "^conv1/bn/moving_mean/Assign"
  input: "^conv1/bn/moving_mean/biased/Assign"
  input: "^conv1/bn/moving_mean/local_step/Assign"
  input: "^conv1/bn/moving_variance/Assign"
  input: "^conv1/bn/moving_variance/biased/Assign"
  input: "^conv1/bn/moving_variance/local_step/Assign"
  input: "^conv1/bn_1/beta/Assign"
  input: "^conv1/bn_1/gamma/Assign"
  input: "^conv1/bn_1/moving_mean/Assign"
  input: "^conv1/bn_1/moving_mean/biased/Assign"
  input: "^conv1/bn_1/moving_mean/local_step/Assign"
  input: "^conv1/bn_1/moving_variance/Assign"
  input: "^conv1/bn_1/moving_variance/biased/Assign"
  input: "^conv1/bn_1/moving_variance/local_step/Assign"
  input: "^conv1/dw/bn/beta/Assign"
  input: "^conv1/dw/bn/gamma/Assign"
  input: "^conv1/dw/bn/moving_mean/Assign"
  input: "^conv1/dw/bn/moving_mean/biased/Assign"
  input: "^conv1/dw/bn/moving_mean/local_step/Assign"
  input: "^conv1/dw/bn/moving_variance/Assign"
  input: "^conv1/dw/bn/moving_variance/biased/Assign"
  input: "^conv1/dw/bn/moving_variance/local_step/Assign"
  input: "^conv1/dw/bn_1/beta/Assign"
  input: "^conv1/dw/bn_1/gamma/Assign"
  input: "^conv1/dw/bn_1/moving_mean/Assign"
  input: "^conv1/dw/bn_1/moving_mean/biased/Assign"
  input: "^conv1/dw/bn_1/moving_mean/local_step/Assign"
  input: "^conv1/dw/bn_1/moving_variance/Assign"
  input: "^conv1/dw/bn_1/moving_variance/biased/Assign"
  input: "^conv1/dw/bn_1/moving_variance/local_step/Assign"
  input: "^conv1/dw/depthwise_kernel/Assign"
  input: "^conv1/dw_1/depthwise_kernel/Assign"
  input: "^conv1/kernel/Assign"
  input: "^conv10/bn/beta/Assign"
  input: "^conv10/bn/gamma/Assign"
  input: "^conv10/bn/moving_mean/Assign"
  input: "^conv10/bn/moving_mean/biased/Assign"
  input: "^conv10/bn/moving_mean/local_step/Assign"
  input: "^conv10/bn/moving_variance/Assign"
  input: "^conv10/bn/moving_variance/biased/Assign"
  input: "^conv10/bn/moving_variance/local_step/Assign"
  input: "^conv10/bn_1/beta/Assign"
  input: "^conv10/bn_1/gamma/Assign"
  input: "^conv10/bn_1/moving_mean/Assign"
  input: "^conv10/bn_1/moving_mean/biased/Assign"
  input: "^conv10/bn_1/moving_mean/local_step/Assign"
  input: "^conv10/bn_1/moving_variance/Assign"
  input: "^conv10/bn_1/moving_variance/biased/Assign"
  input: "^conv10/bn_1/moving_variance/local_step/Assign"
  input: "^conv10/dw/bn/beta/Assign"
  input: "^conv10/dw/bn/gamma/Assign"
  input: "^conv10/dw/bn/moving_mean/Assign"
  input: "^conv10/dw/bn/moving_mean/biased/Assign"
  input: "^conv10/dw/bn/moving_mean/local_step/Assign"
  input: "^conv10/dw/bn/moving_variance/Assign"
  input: "^conv10/dw/bn/moving_variance/biased/Assign"
  input: "^conv10/dw/bn/moving_variance/local_step/Assign"
  input: "^conv10/dw/bn_1/beta/Assign"
  input: "^conv10/dw/bn_1/gamma/Assign"
  input: "^conv10/dw/bn_1/moving_mean/Assign"
  input: "^conv10/dw/bn_1/moving_mean/biased/Assign"
  input: "^conv10/dw/bn_1/moving_mean/local_step/Assign"
  input: "^conv10/dw/bn_1/moving_variance/Assign"
  input: "^conv10/dw/bn_1/moving_variance/biased/Assign"
  input: "^conv10/dw/bn_1/moving_variance/local_step/Assign"
  input: "^conv10/dw/depthwise_kernel/Assign"
  input: "^conv10/dw_1/depthwise_kernel/Assign"
  input: "^conv10/kernel/Assign"
  input: "^conv10_1/kernel/Assign"
  input: "^conv11/bn/beta/Assign"
  input: "^conv11/bn/gamma/Assign"
  input: "^conv11/bn/moving_mean/Assign"
  input: "^conv11/bn/moving_mean/biased/Assign"
  input: "^conv11/bn/moving_mean/local_step/Assign"
  input: "^conv11/bn/moving_variance/Assign"
  input: "^conv11/bn/moving_variance/biased/Assign"
  input: "^conv11/bn/moving_variance/local_step/Assign"
  input: "^conv11/bn_1/beta/Assign"
  input: "^conv11/bn_1/gamma/Assign"
  input: "^conv11/bn_1/moving_mean/Assign"
  input: "^conv11/bn_1/moving_mean/biased/Assign"
  input: "^conv11/bn_1/moving_mean/local_step/Assign"
  input: "^conv11/bn_1/moving_variance/Assign"
  input: "^conv11/bn_1/moving_variance/biased/Assign"
  input: "^conv11/bn_1/moving_variance/local_step/Assign"
  input: "^conv11/dw/bn/beta/Assign"
  input: "^conv11/dw/bn/gamma/Assign"
  input: "^conv11/dw/bn/moving_mean/Assign"
  input: "^conv11/dw/bn/moving_mean/biased/Assign"
  input: "^conv11/dw/bn/moving_mean/local_step/Assign"
  input: "^conv11/dw/bn/moving_variance/Assign"
  input: "^conv11/dw/bn/moving_variance/biased/Assign"
  input: "^conv11/dw/bn/moving_variance/local_step/Assign"
  input: "^conv11/dw/bn_1/beta/Assign"
  input: "^conv11/dw/bn_1/gamma/Assign"
  input: "^conv11/dw/bn_1/moving_mean/Assign"
  input: "^conv11/dw/bn_1/moving_mean/biased/Assign"
  input: "^conv11/dw/bn_1/moving_mean/local_step/Assign"
  input: "^conv11/dw/bn_1/moving_variance/Assign"
  input: "^conv11/dw/bn_1/moving_variance/biased/Assign"
  input: "^conv11/dw/bn_1/moving_variance/local_step/Assign"
  input: "^conv11/dw/depthwise_kernel/Assign"
  input: "^conv11/dw_1/depthwise_kernel/Assign"
  input: "^conv11/kernel/Assign"
  input: "^conv11_1/kernel/Assign"
  input: "^conv11_mbox_conf/bias/Assign"
  input: "^conv11_mbox_conf/kernel/Assign"
  input: "^conv11_mbox_conf_1/bias/Assign"
  input: "^conv11_mbox_conf_1/kernel/Assign"
  input: "^conv11_mbox_loc/bias/Assign"
  input: "^conv11_mbox_loc/kernel/Assign"
  input: "^conv11_mbox_loc_1/bias/Assign"
  input: "^conv11_mbox_loc_1/kernel/Assign"
  input: "^conv12/bn/beta/Assign"
  input: "^conv12/bn/gamma/Assign"
  input: "^conv12/bn/moving_mean/Assign"
  input: "^conv12/bn/moving_mean/biased/Assign"
  input: "^conv12/bn/moving_mean/local_step/Assign"
  input: "^conv12/bn/moving_variance/Assign"
  input: "^conv12/bn/moving_variance/biased/Assign"
  input: "^conv12/bn/moving_variance/local_step/Assign"
  input: "^conv12/bn_1/beta/Assign"
  input: "^conv12/bn_1/gamma/Assign"
  input: "^conv12/bn_1/moving_mean/Assign"
  input: "^conv12/bn_1/moving_mean/biased/Assign"
  input: "^conv12/bn_1/moving_mean/local_step/Assign"
  input: "^conv12/bn_1/moving_variance/Assign"
  input: "^conv12/bn_1/moving_variance/biased/Assign"
  input: "^conv12/bn_1/moving_variance/local_step/Assign"
  input: "^conv12/dw/bn/beta/Assign"
  input: "^conv12/dw/bn/gamma/Assign"
  input: "^conv12/dw/bn/moving_mean/Assign"
  input: "^conv12/dw/bn/moving_mean/biased/Assign"
  input: "^conv12/dw/bn/moving_mean/local_step/Assign"
  input: "^conv12/dw/bn/moving_variance/Assign"
  input: "^conv12/dw/bn/moving_variance/biased/Assign"
  input: "^conv12/dw/bn/moving_variance/local_step/Assign"
  input: "^conv12/dw/bn_1/beta/Assign"
  input: "^conv12/dw/bn_1/gamma/Assign"
  input: "^conv12/dw/bn_1/moving_mean/Assign"
  input: "^conv12/dw/bn_1/moving_mean/biased/Assign"
  input: "^conv12/dw/bn_1/moving_mean/local_step/Assign"
  input: "^conv12/dw/bn_1/moving_variance/Assign"
  input: "^conv12/dw/bn_1/moving_variance/biased/Assign"
  input: "^conv12/dw/bn_1/moving_variance/local_step/Assign"
  input: "^conv12/dw/depthwise_kernel/Assign"
  input: "^conv12/dw_1/depthwise_kernel/Assign"
  input: "^conv12/kernel/Assign"
  input: "^conv12_1/kernel/Assign"
  input: "^conv13/bn/beta/Assign"
  input: "^conv13/bn/gamma/Assign"
  input: "^conv13/bn/moving_mean/Assign"
  input: "^conv13/bn/moving_mean/biased/Assign"
  input: "^conv13/bn/moving_mean/local_step/Assign"
  input: "^conv13/bn/moving_variance/Assign"
  input: "^conv13/bn/moving_variance/biased/Assign"
  input: "^conv13/bn/moving_variance/local_step/Assign"
  input: "^conv13/bn_1/beta/Assign"
  input: "^conv13/bn_1/gamma/Assign"
  input: "^conv13/bn_1/moving_mean/Assign"
  input: "^conv13/bn_1/moving_mean/biased/Assign"
  input: "^conv13/bn_1/moving_mean/local_step/Assign"
  input: "^conv13/bn_1/moving_variance/Assign"
  input: "^conv13/bn_1/moving_variance/biased/Assign"
  input: "^conv13/bn_1/moving_variance/local_step/Assign"
  input: "^conv13/dw/bn/beta/Assign"
  input: "^conv13/dw/bn/gamma/Assign"
  input: "^conv13/dw/bn/moving_mean/Assign"
  input: "^conv13/dw/bn/moving_mean/biased/Assign"
  input: "^conv13/dw/bn/moving_mean/local_step/Assign"
  input: "^conv13/dw/bn/moving_variance/Assign"
  input: "^conv13/dw/bn/moving_variance/biased/Assign"
  input: "^conv13/dw/bn/moving_variance/local_step/Assign"
  input: "^conv13/dw/bn_1/beta/Assign"
  input: "^conv13/dw/bn_1/gamma/Assign"
  input: "^conv13/dw/bn_1/moving_mean/Assign"
  input: "^conv13/dw/bn_1/moving_mean/biased/Assign"
  input: "^conv13/dw/bn_1/moving_mean/local_step/Assign"
  input: "^conv13/dw/bn_1/moving_variance/Assign"
  input: "^conv13/dw/bn_1/moving_variance/biased/Assign"
  input: "^conv13/dw/bn_1/moving_variance/local_step/Assign"
  input: "^conv13/dw/depthwise_kernel/Assign"
  input: "^conv13/dw_1/depthwise_kernel/Assign"
  input: "^conv13/kernel/Assign"
  input: "^conv13_1/kernel/Assign"
  input: "^conv13_mbox_conf/bias/Assign"
  input: "^conv13_mbox_conf/kernel/Assign"
  input: "^conv13_mbox_conf_1/bias/Assign"
  input: "^conv13_mbox_conf_1/kernel/Assign"
  input: "^conv13_mbox_loc/bias/Assign"
  input: "^conv13_mbox_loc/kernel/Assign"
  input: "^conv13_mbox_loc_1/bias/Assign"
  input: "^conv13_mbox_loc_1/kernel/Assign"
  input: "^conv14_1/bn/beta/Assign"
  input: "^conv14_1/bn/gamma/Assign"
  input: "^conv14_1/bn/moving_mean/Assign"
  input: "^conv14_1/bn/moving_mean/biased/Assign"
  input: "^conv14_1/bn/moving_mean/local_step/Assign"
  input: "^conv14_1/bn/moving_variance/Assign"
  input: "^conv14_1/bn/moving_variance/biased/Assign"
  input: "^conv14_1/bn/moving_variance/local_step/Assign"
  input: "^conv14_1/bn_1/beta/Assign"
  input: "^conv14_1/bn_1/gamma/Assign"
  input: "^conv14_1/bn_1/moving_mean/Assign"
  input: "^conv14_1/bn_1/moving_mean/biased/Assign"
  input: "^conv14_1/bn_1/moving_mean/local_step/Assign"
  input: "^conv14_1/bn_1/moving_variance/Assign"
  input: "^conv14_1/bn_1/moving_variance/biased/Assign"
  input: "^conv14_1/bn_1/moving_variance/local_step/Assign"
  input: "^conv14_1/kernel/Assign"
  input: "^conv14_1_1/kernel/Assign"
  input: "^conv14_2/bn/beta/Assign"
  input: "^conv14_2/bn/gamma/Assign"
  input: "^conv14_2/bn/moving_mean/Assign"
  input: "^conv14_2/bn/moving_mean/biased/Assign"
  input: "^conv14_2/bn/moving_mean/local_step/Assign"
  input: "^conv14_2/bn/moving_variance/Assign"
  input: "^conv14_2/bn/moving_variance/biased/Assign"
  input: "^conv14_2/bn/moving_variance/local_step/Assign"
  input: "^conv14_2/bn_1/beta/Assign"
  input: "^conv14_2/bn_1/gamma/Assign"
  input: "^conv14_2/bn_1/moving_mean/Assign"
  input: "^conv14_2/bn_1/moving_mean/biased/Assign"
  input: "^conv14_2/bn_1/moving_mean/local_step/Assign"
  input: "^conv14_2/bn_1/moving_variance/Assign"
  input: "^conv14_2/bn_1/moving_variance/biased/Assign"
  input: "^conv14_2/bn_1/moving_variance/local_step/Assign"
  input: "^conv14_2/kernel/Assign"
  input: "^conv14_2_1/kernel/Assign"
  input: "^conv14_2_mbox_conf/bias/Assign"
  input: "^conv14_2_mbox_conf/kernel/Assign"
  input: "^conv14_2_mbox_conf_1/bias/Assign"
  input: "^conv14_2_mbox_conf_1/kernel/Assign"
  input: "^conv14_2_mbox_loc/bias/Assign"
  input: "^conv14_2_mbox_loc/kernel/Assign"
  input: "^conv14_2_mbox_loc_1/bias/Assign"
  input: "^conv14_2_mbox_loc_1/kernel/Assign"
  input: "^conv15_1/bn/beta/Assign"
  input: "^conv15_1/bn/gamma/Assign"
  input: "^conv15_1/bn/moving_mean/Assign"
  input: "^conv15_1/bn/moving_mean/biased/Assign"
  input: "^conv15_1/bn/moving_mean/local_step/Assign"
  input: "^conv15_1/bn/moving_variance/Assign"
  input: "^conv15_1/bn/moving_variance/biased/Assign"
  input: "^conv15_1/bn/moving_variance/local_step/Assign"
  input: "^conv15_1/bn_1/beta/Assign"
  input: "^conv15_1/bn_1/gamma/Assign"
  input: "^conv15_1/bn_1/moving_mean/Assign"
  input: "^conv15_1/bn_1/moving_mean/biased/Assign"
  input: "^conv15_1/bn_1/moving_mean/local_step/Assign"
  input: "^conv15_1/bn_1/moving_variance/Assign"
  input: "^conv15_1/bn_1/moving_variance/biased/Assign"
  input: "^conv15_1/bn_1/moving_variance/local_step/Assign"
  input: "^conv15_1/kernel/Assign"
  input: "^conv15_1_1/kernel/Assign"
  input: "^conv15_2/bn/beta/Assign"
  input: "^conv15_2/bn/gamma/Assign"
  input: "^conv15_2/bn/moving_mean/Assign"
  input: "^conv15_2/bn/moving_mean/biased/Assign"
  input: "^conv15_2/bn/moving_mean/local_step/Assign"
  input: "^conv15_2/bn/moving_variance/Assign"
  input: "^conv15_2/bn/moving_variance/biased/Assign"
  input: "^conv15_2/bn/moving_variance/local_step/Assign"
  input: "^conv15_2/bn_1/beta/Assign"
  input: "^conv15_2/bn_1/gamma/Assign"
  input: "^conv15_2/bn_1/moving_mean/Assign"
  input: "^conv15_2/bn_1/moving_mean/biased/Assign"
  input: "^conv15_2/bn_1/moving_mean/local_step/Assign"
  input: "^conv15_2/bn_1/moving_variance/Assign"
  input: "^conv15_2/bn_1/moving_variance/biased/Assign"
  input: "^conv15_2/bn_1/moving_variance/local_step/Assign"
  input: "^conv15_2/kernel/Assign"
  input: "^conv15_2_1/kernel/Assign"
  input: "^conv15_2_mbox_conf/bias/Assign"
  input: "^conv15_2_mbox_conf/kernel/Assign"
  input: "^conv15_2_mbox_conf_1/bias/Assign"
  input: "^conv15_2_mbox_conf_1/kernel/Assign"
  input: "^conv15_2_mbox_loc/bias/Assign"
  input: "^conv15_2_mbox_loc/kernel/Assign"
  input: "^conv15_2_mbox_loc_1/bias/Assign"
  input: "^conv15_2_mbox_loc_1/kernel/Assign"
  input: "^conv16_1/bn/beta/Assign"
  input: "^conv16_1/bn/gamma/Assign"
  input: "^conv16_1/bn/moving_mean/Assign"
  input: "^conv16_1/bn/moving_mean/biased/Assign"
  input: "^conv16_1/bn/moving_mean/local_step/Assign"
  input: "^conv16_1/bn/moving_variance/Assign"
  input: "^conv16_1/bn/moving_variance/biased/Assign"
  input: "^conv16_1/bn/moving_variance/local_step/Assign"
  input: "^conv16_1/bn_1/beta/Assign"
  input: "^conv16_1/bn_1/gamma/Assign"
  input: "^conv16_1/bn_1/moving_mean/Assign"
  input: "^conv16_1/bn_1/moving_mean/biased/Assign"
  input: "^conv16_1/bn_1/moving_mean/local_step/Assign"
  input: "^conv16_1/bn_1/moving_variance/Assign"
  input: "^conv16_1/bn_1/moving_variance/biased/Assign"
  input: "^conv16_1/bn_1/moving_variance/local_step/Assign"
  input: "^conv16_1/kernel/Assign"
  input: "^conv16_1_1/kernel/Assign"
  input: "^conv16_2/bn/beta/Assign"
  input: "^conv16_2/bn/gamma/Assign"
  input: "^conv16_2/bn/moving_mean/Assign"
  input: "^conv16_2/bn/moving_mean/biased/Assign"
  input: "^conv16_2/bn/moving_mean/local_step/Assign"
  input: "^conv16_2/bn/moving_variance/Assign"
  input: "^conv16_2/bn/moving_variance/biased/Assign"
  input: "^conv16_2/bn/moving_variance/local_step/Assign"
  input: "^conv16_2/bn_1/beta/Assign"
  input: "^conv16_2/bn_1/gamma/Assign"
  input: "^conv16_2/bn_1/moving_mean/Assign"
  input: "^conv16_2/bn_1/moving_mean/biased/Assign"
  input: "^conv16_2/bn_1/moving_mean/local_step/Assign"
  input: "^conv16_2/bn_1/moving_variance/Assign"
  input: "^conv16_2/bn_1/moving_variance/biased/Assign"
  input: "^conv16_2/bn_1/moving_variance/local_step/Assign"
  input: "^conv16_2/kernel/Assign"
  input: "^conv16_2_1/kernel/Assign"
  input: "^conv16_2_mbox_conf/bias/Assign"
  input: "^conv16_2_mbox_conf/kernel/Assign"
  input: "^conv16_2_mbox_conf_1/bias/Assign"
  input: "^conv16_2_mbox_conf_1/kernel/Assign"
  input: "^conv16_2_mbox_loc/bias/Assign"
  input: "^conv16_2_mbox_loc/kernel/Assign"
  input: "^conv16_2_mbox_loc_1/bias/Assign"
  input: "^conv16_2_mbox_loc_1/kernel/Assign"
  input: "^conv17_1/bn/beta/Assign"
  input: "^conv17_1/bn/gamma/Assign"
  input: "^conv17_1/bn/moving_mean/Assign"
  input: "^conv17_1/bn/moving_mean/biased/Assign"
  input: "^conv17_1/bn/moving_mean/local_step/Assign"
  input: "^conv17_1/bn/moving_variance/Assign"
  input: "^conv17_1/bn/moving_variance/biased/Assign"
  input: "^conv17_1/bn/moving_variance/local_step/Assign"
  input: "^conv17_1/bn_1/beta/Assign"
  input: "^conv17_1/bn_1/gamma/Assign"
  input: "^conv17_1/bn_1/moving_mean/Assign"
  input: "^conv17_1/bn_1/moving_mean/biased/Assign"
  input: "^conv17_1/bn_1/moving_mean/local_step/Assign"
  input: "^conv17_1/bn_1/moving_variance/Assign"
  input: "^conv17_1/bn_1/moving_variance/biased/Assign"
  input: "^conv17_1/bn_1/moving_variance/local_step/Assign"
  input: "^conv17_1/kernel/Assign"
  input: "^conv17_1_1/kernel/Assign"
  input: "^conv17_2/bn/beta/Assign"
  input: "^conv17_2/bn/gamma/Assign"
  input: "^conv17_2/bn/moving_mean/Assign"
  input: "^conv17_2/bn/moving_mean/biased/Assign"
  input: "^conv17_2/bn/moving_mean/local_step/Assign"
  input: "^conv17_2/bn/moving_variance/Assign"
  input: "^conv17_2/bn/moving_variance/biased/Assign"
  input: "^conv17_2/bn/moving_variance/local_step/Assign"
  input: "^conv17_2/bn_1/beta/Assign"
  input: "^conv17_2/bn_1/gamma/Assign"
  input: "^conv17_2/bn_1/moving_mean/Assign"
  input: "^conv17_2/bn_1/moving_mean/biased/Assign"
  input: "^conv17_2/bn_1/moving_mean/local_step/Assign"
  input: "^conv17_2/bn_1/moving_variance/Assign"
  input: "^conv17_2/bn_1/moving_variance/biased/Assign"
  input: "^conv17_2/bn_1/moving_variance/local_step/Assign"
  input: "^conv17_2/kernel/Assign"
  input: "^conv17_2_1/kernel/Assign"
  input: "^conv17_2_mbox_conf/bias/Assign"
  input: "^conv17_2_mbox_conf/kernel/Assign"
  input: "^conv17_2_mbox_conf_1/bias/Assign"
  input: "^conv17_2_mbox_conf_1/kernel/Assign"
  input: "^conv17_2_mbox_loc/bias/Assign"
  input: "^conv17_2_mbox_loc/kernel/Assign"
  input: "^conv17_2_mbox_loc_1/bias/Assign"
  input: "^conv17_2_mbox_loc_1/kernel/Assign"
  input: "^conv1_1/kernel/Assign"
  input: "^conv2/bn/beta/Assign"
  input: "^conv2/bn/gamma/Assign"
  input: "^conv2/bn/moving_mean/Assign"
  input: "^conv2/bn/moving_mean/biased/Assign"
  input: "^conv2/bn/moving_mean/local_step/Assign"
  input: "^conv2/bn/moving_variance/Assign"
  input: "^conv2/bn/moving_variance/biased/Assign"
  input: "^conv2/bn/moving_variance/local_step/Assign"
  input: "^conv2/bn_1/beta/Assign"
  input: "^conv2/bn_1/gamma/Assign"
  input: "^conv2/bn_1/moving_mean/Assign"
  input: "^conv2/bn_1/moving_mean/biased/Assign"
  input: "^conv2/bn_1/moving_mean/local_step/Assign"
  input: "^conv2/bn_1/moving_variance/Assign"
  input: "^conv2/bn_1/moving_variance/biased/Assign"
  input: "^conv2/bn_1/moving_variance/local_step/Assign"
  input: "^conv2/dw/bn/beta/Assign"
  input: "^conv2/dw/bn/gamma/Assign"
  input: "^conv2/dw/bn/moving_mean/Assign"
  input: "^conv2/dw/bn/moving_mean/biased/Assign"
  input: "^conv2/dw/bn/moving_mean/local_step/Assign"
  input: "^conv2/dw/bn/moving_variance/Assign"
  input: "^conv2/dw/bn/moving_variance/biased/Assign"
  input: "^conv2/dw/bn/moving_variance/local_step/Assign"
  input: "^conv2/dw/bn_1/beta/Assign"
  input: "^conv2/dw/bn_1/gamma/Assign"
  input: "^conv2/dw/bn_1/moving_mean/Assign"
  input: "^conv2/dw/bn_1/moving_mean/biased/Assign"
  input: "^conv2/dw/bn_1/moving_mean/local_step/Assign"
  input: "^conv2/dw/bn_1/moving_variance/Assign"
  input: "^conv2/dw/bn_1/moving_variance/biased/Assign"
  input: "^conv2/dw/bn_1/moving_variance/local_step/Assign"
  input: "^conv2/dw/depthwise_kernel/Assign"
  input: "^conv2/dw_1/depthwise_kernel/Assign"
  input: "^conv2/kernel/Assign"
  input: "^conv2_1/kernel/Assign"
  input: "^conv3/bn/beta/Assign"
  input: "^conv3/bn/gamma/Assign"
  input: "^conv3/bn/moving_mean/Assign"
  input: "^conv3/bn/moving_mean/biased/Assign"
  input: "^conv3/bn/moving_mean/local_step/Assign"
  input: "^conv3/bn/moving_variance/Assign"
  input: "^conv3/bn/moving_variance/biased/Assign"
  input: "^conv3/bn/moving_variance/local_step/Assign"
  input: "^conv3/bn_1/beta/Assign"
  input: "^conv3/bn_1/gamma/Assign"
  input: "^conv3/bn_1/moving_mean/Assign"
  input: "^conv3/bn_1/moving_mean/biased/Assign"
  input: "^conv3/bn_1/moving_mean/local_step/Assign"
  input: "^conv3/bn_1/moving_variance/Assign"
  input: "^conv3/bn_1/moving_variance/biased/Assign"
  input: "^conv3/bn_1/moving_variance/local_step/Assign"
  input: "^conv3/dw/bn/beta/Assign"
  input: "^conv3/dw/bn/gamma/Assign"
  input: "^conv3/dw/bn/moving_mean/Assign"
  input: "^conv3/dw/bn/moving_mean/biased/Assign"
  input: "^conv3/dw/bn/moving_mean/local_step/Assign"
  input: "^conv3/dw/bn/moving_variance/Assign"
  input: "^conv3/dw/bn/moving_variance/biased/Assign"
  input: "^conv3/dw/bn/moving_variance/local_step/Assign"
  input: "^conv3/dw/bn_1/beta/Assign"
  input: "^conv3/dw/bn_1/gamma/Assign"
  input: "^conv3/dw/bn_1/moving_mean/Assign"
  input: "^conv3/dw/bn_1/moving_mean/biased/Assign"
  input: "^conv3/dw/bn_1/moving_mean/local_step/Assign"
  input: "^conv3/dw/bn_1/moving_variance/Assign"
  input: "^conv3/dw/bn_1/moving_variance/biased/Assign"
  input: "^conv3/dw/bn_1/moving_variance/local_step/Assign"
  input: "^conv3/dw/depthwise_kernel/Assign"
  input: "^conv3/dw_1/depthwise_kernel/Assign"
  input: "^conv3/kernel/Assign"
  input: "^conv3_1/kernel/Assign"
  input: "^conv4/bn/beta/Assign"
  input: "^conv4/bn/gamma/Assign"
  input: "^conv4/bn/moving_mean/Assign"
  input: "^conv4/bn/moving_mean/biased/Assign"
  input: "^conv4/bn/moving_mean/local_step/Assign"
  input: "^conv4/bn/moving_variance/Assign"
  input: "^conv4/bn/moving_variance/biased/Assign"
  input: "^conv4/bn/moving_variance/local_step/Assign"
  input: "^conv4/bn_1/beta/Assign"
  input: "^conv4/bn_1/gamma/Assign"
  input: "^conv4/bn_1/moving_mean/Assign"
  input: "^conv4/bn_1/moving_mean/biased/Assign"
  input: "^conv4/bn_1/moving_mean/local_step/Assign"
  input: "^conv4/bn_1/moving_variance/Assign"
  input: "^conv4/bn_1/moving_variance/biased/Assign"
  input: "^conv4/bn_1/moving_variance/local_step/Assign"
  input: "^conv4/dw/bn/beta/Assign"
  input: "^conv4/dw/bn/gamma/Assign"
  input: "^conv4/dw/bn/moving_mean/Assign"
  input: "^conv4/dw/bn/moving_mean/biased/Assign"
  input: "^conv4/dw/bn/moving_mean/local_step/Assign"
  input: "^conv4/dw/bn/moving_variance/Assign"
  input: "^conv4/dw/bn/moving_variance/biased/Assign"
  input: "^conv4/dw/bn/moving_variance/local_step/Assign"
  input: "^conv4/dw/bn_1/beta/Assign"
  input: "^conv4/dw/bn_1/gamma/Assign"
  input: "^conv4/dw/bn_1/moving_mean/Assign"
  input: "^conv4/dw/bn_1/moving_mean/biased/Assign"
  input: "^conv4/dw/bn_1/moving_mean/local_step/Assign"
  input: "^conv4/dw/bn_1/moving_variance/Assign"
  input: "^conv4/dw/bn_1/moving_variance/biased/Assign"
  input: "^conv4/dw/bn_1/moving_variance/local_step/Assign"
  input: "^conv4/dw/depthwise_kernel/Assign"
  input: "^conv4/dw_1/depthwise_kernel/Assign"
  input: "^conv4/kernel/Assign"
  input: "^conv4_1/kernel/Assign"
  input: "^conv5/bn/beta/Assign"
  input: "^conv5/bn/gamma/Assign"
  input: "^conv5/bn/moving_mean/Assign"
  input: "^conv5/bn/moving_mean/biased/Assign"
  input: "^conv5/bn/moving_mean/local_step/Assign"
  input: "^conv5/bn/moving_variance/Assign"
  input: "^conv5/bn/moving_variance/biased/Assign"
  input: "^conv5/bn/moving_variance/local_step/Assign"
  input: "^conv5/bn_1/beta/Assign"
  input: "^conv5/bn_1/gamma/Assign"
  input: "^conv5/bn_1/moving_mean/Assign"
  input: "^conv5/bn_1/moving_mean/biased/Assign"
  input: "^conv5/bn_1/moving_mean/local_step/Assign"
  input: "^conv5/bn_1/moving_variance/Assign"
  input: "^conv5/bn_1/moving_variance/biased/Assign"
  input: "^conv5/bn_1/moving_variance/local_step/Assign"
  input: "^conv5/dw/bn/beta/Assign"
  input: "^conv5/dw/bn/gamma/Assign"
  input: "^conv5/dw/bn/moving_mean/Assign"
  input: "^conv5/dw/bn/moving_mean/biased/Assign"
  input: "^conv5/dw/bn/moving_mean/local_step/Assign"
  input: "^conv5/dw/bn/moving_variance/Assign"
  input: "^conv5/dw/bn/moving_variance/biased/Assign"
  input: "^conv5/dw/bn/moving_variance/local_step/Assign"
  input: "^conv5/dw/bn_1/beta/Assign"
  input: "^conv5/dw/bn_1/gamma/Assign"
  input: "^conv5/dw/bn_1/moving_mean/Assign"
  input: "^conv5/dw/bn_1/moving_mean/biased/Assign"
  input: "^conv5/dw/bn_1/moving_mean/local_step/Assign"
  input: "^conv5/dw/bn_1/moving_variance/Assign"
  input: "^conv5/dw/bn_1/moving_variance/biased/Assign"
  input: "^conv5/dw/bn_1/moving_variance/local_step/Assign"
  input: "^conv5/dw/depthwise_kernel/Assign"
  input: "^conv5/dw_1/depthwise_kernel/Assign"
  input: "^conv5/kernel/Assign"
  input: "^conv5_1/kernel/Assign"
  input: "^conv6/bn/beta/Assign"
  input: "^conv6/bn/gamma/Assign"
  input: "^conv6/bn/moving_mean/Assign"
  input: "^conv6/bn/moving_mean/biased/Assign"
  input: "^conv6/bn/moving_mean/local_step/Assign"
  input: "^conv6/bn/moving_variance/Assign"
  input: "^conv6/bn/moving_variance/biased/Assign"
  input: "^conv6/bn/moving_variance/local_step/Assign"
  input: "^conv6/bn_1/beta/Assign"
  input: "^conv6/bn_1/gamma/Assign"
  input: "^conv6/bn_1/moving_mean/Assign"
  input: "^conv6/bn_1/moving_mean/biased/Assign"
  input: "^conv6/bn_1/moving_mean/local_step/Assign"
  input: "^conv6/bn_1/moving_variance/Assign"
  input: "^conv6/bn_1/moving_variance/biased/Assign"
  input: "^conv6/bn_1/moving_variance/local_step/Assign"
  input: "^conv6/dw/bn/beta/Assign"
  input: "^conv6/dw/bn/gamma/Assign"
  input: "^conv6/dw/bn/moving_mean/Assign"
  input: "^conv6/dw/bn/moving_mean/biased/Assign"
  input: "^conv6/dw/bn/moving_mean/local_step/Assign"
  input: "^conv6/dw/bn/moving_variance/Assign"
  input: "^conv6/dw/bn/moving_variance/biased/Assign"
  input: "^conv6/dw/bn/moving_variance/local_step/Assign"
  input: "^conv6/dw/bn_1/beta/Assign"
  input: "^conv6/dw/bn_1/gamma/Assign"
  input: "^conv6/dw/bn_1/moving_mean/Assign"
  input: "^conv6/dw/bn_1/moving_mean/biased/Assign"
  input: "^conv6/dw/bn_1/moving_mean/local_step/Assign"
  input: "^conv6/dw/bn_1/moving_variance/Assign"
  input: "^conv6/dw/bn_1/moving_variance/biased/Assign"
  input: "^conv6/dw/bn_1/moving_variance/local_step/Assign"
  input: "^conv6/dw/depthwise_kernel/Assign"
  input: "^conv6/dw_1/depthwise_kernel/Assign"
  input: "^conv6/kernel/Assign"
  input: "^conv6_1/kernel/Assign"
  input: "^conv7/bn/beta/Assign"
  input: "^conv7/bn/gamma/Assign"
  input: "^conv7/bn/moving_mean/Assign"
  input: "^conv7/bn/moving_mean/biased/Assign"
  input: "^conv7/bn/moving_mean/local_step/Assign"
  input: "^conv7/bn/moving_variance/Assign"
  input: "^conv7/bn/moving_variance/biased/Assign"
  input: "^conv7/bn/moving_variance/local_step/Assign"
  input: "^conv7/bn_1/beta/Assign"
  input: "^conv7/bn_1/gamma/Assign"
  input: "^conv7/bn_1/moving_mean/Assign"
  input: "^conv7/bn_1/moving_mean/biased/Assign"
  input: "^conv7/bn_1/moving_mean/local_step/Assign"
  input: "^conv7/bn_1/moving_variance/Assign"
  input: "^conv7/bn_1/moving_variance/biased/Assign"
  input: "^conv7/bn_1/moving_variance/local_step/Assign"
  input: "^conv7/dw/bn/beta/Assign"
  input: "^conv7/dw/bn/gamma/Assign"
  input: "^conv7/dw/bn/moving_mean/Assign"
  input: "^conv7/dw/bn/moving_mean/biased/Assign"
  input: "^conv7/dw/bn/moving_mean/local_step/Assign"
  input: "^conv7/dw/bn/moving_variance/Assign"
  input: "^conv7/dw/bn/moving_variance/biased/Assign"
  input: "^conv7/dw/bn/moving_variance/local_step/Assign"
  input: "^conv7/dw/bn_1/beta/Assign"
  input: "^conv7/dw/bn_1/gamma/Assign"
  input: "^conv7/dw/bn_1/moving_mean/Assign"
  input: "^conv7/dw/bn_1/moving_mean/biased/Assign"
  input: "^conv7/dw/bn_1/moving_mean/local_step/Assign"
  input: "^conv7/dw/bn_1/moving_variance/Assign"
  input: "^conv7/dw/bn_1/moving_variance/biased/Assign"
  input: "^conv7/dw/bn_1/moving_variance/local_step/Assign"
  input: "^conv7/dw/depthwise_kernel/Assign"
  input: "^conv7/dw_1/depthwise_kernel/Assign"
  input: "^conv7/kernel/Assign"
  input: "^conv7_1/kernel/Assign"
  input: "^conv8/bn/beta/Assign"
  input: "^conv8/bn/gamma/Assign"
  input: "^conv8/bn/moving_mean/Assign"
  input: "^conv8/bn/moving_mean/biased/Assign"
  input: "^conv8/bn/moving_mean/local_step/Assign"
  input: "^conv8/bn/moving_variance/Assign"
  input: "^conv8/bn/moving_variance/biased/Assign"
  input: "^conv8/bn/moving_variance/local_step/Assign"
  input: "^conv8/bn_1/beta/Assign"
  input: "^conv8/bn_1/gamma/Assign"
  input: "^conv8/bn_1/moving_mean/Assign"
  input: "^conv8/bn_1/moving_mean/biased/Assign"
  input: "^conv8/bn_1/moving_mean/local_step/Assign"
  input: "^conv8/bn_1/moving_variance/Assign"
  input: "^conv8/bn_1/moving_variance/biased/Assign"
  input: "^conv8/bn_1/moving_variance/local_step/Assign"
  input: "^conv8/dw/bn/beta/Assign"
  input: "^conv8/dw/bn/gamma/Assign"
  input: "^conv8/dw/bn/moving_mean/Assign"
  input: "^conv8/dw/bn/moving_mean/biased/Assign"
  input: "^conv8/dw/bn/moving_mean/local_step/Assign"
  input: "^conv8/dw/bn/moving_variance/Assign"
  input: "^conv8/dw/bn/moving_variance/biased/Assign"
  input: "^conv8/dw/bn/moving_variance/local_step/Assign"
  input: "^conv8/dw/bn_1/beta/Assign"
  input: "^conv8/dw/bn_1/gamma/Assign"
  input: "^conv8/dw/bn_1/moving_mean/Assign"
  input: "^conv8/dw/bn_1/moving_mean/biased/Assign"
  input: "^conv8/dw/bn_1/moving_mean/local_step/Assign"
  input: "^conv8/dw/bn_1/moving_variance/Assign"
  input: "^conv8/dw/bn_1/moving_variance/biased/Assign"
  input: "^conv8/dw/bn_1/moving_variance/local_step/Assign"
  input: "^conv8/dw/depthwise_kernel/Assign"
  input: "^conv8/dw_1/depthwise_kernel/Assign"
  input: "^conv8/kernel/Assign"
  input: "^conv8_1/kernel/Assign"
  input: "^conv9/bn/beta/Assign"
  input: "^conv9/bn/gamma/Assign"
  input: "^conv9/bn/moving_mean/Assign"
  input: "^conv9/bn/moving_mean/biased/Assign"
  input: "^conv9/bn/moving_mean/local_step/Assign"
  input: "^conv9/bn/moving_variance/Assign"
  input: "^conv9/bn/moving_variance/biased/Assign"
  input: "^conv9/bn/moving_variance/local_step/Assign"
  input: "^conv9/bn_1/beta/Assign"
  input: "^conv9/bn_1/gamma/Assign"
  input: "^conv9/bn_1/moving_mean/Assign"
  input: "^conv9/bn_1/moving_mean/biased/Assign"
  input: "^conv9/bn_1/moving_mean/local_step/Assign"
  input: "^conv9/bn_1/moving_variance/Assign"
  input: "^conv9/bn_1/moving_variance/biased/Assign"
  input: "^conv9/bn_1/moving_variance/local_step/Assign"
  input: "^conv9/dw/bn/beta/Assign"
  input: "^conv9/dw/bn/gamma/Assign"
  input: "^conv9/dw/bn/moving_mean/Assign"
  input: "^conv9/dw/bn/moving_mean/biased/Assign"
  input: "^conv9/dw/bn/moving_mean/local_step/Assign"
  input: "^conv9/dw/bn/moving_variance/Assign"
  input: "^conv9/dw/bn/moving_variance/biased/Assign"
  input: "^conv9/dw/bn/moving_variance/local_step/Assign"
  input: "^conv9/dw/bn_1/beta/Assign"
  input: "^conv9/dw/bn_1/gamma/Assign"
  input: "^conv9/dw/bn_1/moving_mean/Assign"
  input: "^conv9/dw/bn_1/moving_mean/biased/Assign"
  input: "^conv9/dw/bn_1/moving_mean/local_step/Assign"
  input: "^conv9/dw/bn_1/moving_variance/Assign"
  input: "^conv9/dw/bn_1/moving_variance/biased/Assign"
  input: "^conv9/dw/bn_1/moving_variance/local_step/Assign"
  input: "^conv9/dw/depthwise_kernel/Assign"
  input: "^conv9/dw_1/depthwise_kernel/Assign"
  input: "^conv9/kernel/Assign"
  input: "^conv9_1/kernel/Assign"
}
versions {
  producer: 26
}
